Date and time: 2019-01-18 11-25-12

Datasets used: ['/home/kenny/Desktop/lanes-segmentation/data/images/innopolis']

633
633
Image dtype:uint8
Label dtype:uint8

633
633
0
0
Class weights: [0.16541089 1.         1.42351978]

Model summary:
__________________________________________________________________________________________________
Layer (type)                    Output Shape         Param #     Connected to                     
==================================================================================================
input_1 (InputLayer)            (None, 256, 640, 3)  0                                            
__________________________________________________________________________________________________
lambda_1 (Lambda)               (None, 256, 640, 3)  0           input_1[0][0]                    
__________________________________________________________________________________________________
Conv (Conv2D)                   (None, 128, 320, 32) 864         lambda_1[0][0]                   
__________________________________________________________________________________________________
Conv_BN (BatchNormalization)    (None, 128, 320, 32) 128         Conv[0][0]                       
__________________________________________________________________________________________________
lambda_2 (Lambda)               (None, 128, 320, 32) 0           Conv_BN[0][0]                    
__________________________________________________________________________________________________
expanded_conv_depthwise (Depthw (None, 128, 320, 32) 288         lambda_2[0][0]                   
__________________________________________________________________________________________________
expanded_conv_depthwise_BN (Bat (None, 128, 320, 32) 128         expanded_conv_depthwise[0][0]    
__________________________________________________________________________________________________
expanded_conv_depthwise_relu (L (None, 128, 320, 32) 0           expanded_conv_depthwise_BN[0][0] 
__________________________________________________________________________________________________
expanded_conv_project (Conv2D)  (None, 128, 320, 16) 512         expanded_conv_depthwise_relu[0][0
__________________________________________________________________________________________________
expanded_conv_project_BN (Batch (None, 128, 320, 16) 64          expanded_conv_project[0][0]      
__________________________________________________________________________________________________
expanded_conv_1_expand (Conv2D) (None, 128, 320, 96) 1536        expanded_conv_project_BN[0][0]   
__________________________________________________________________________________________________
expanded_conv_1_expand_BN (Batc (None, 128, 320, 96) 384         expanded_conv_1_expand[0][0]     
__________________________________________________________________________________________________
expanded_conv_1_expand_relu (La (None, 128, 320, 96) 0           expanded_conv_1_expand_BN[0][0]  
__________________________________________________________________________________________________
expanded_conv_1_depthwise (Dept (None, 64, 160, 96)  864         expanded_conv_1_expand_relu[0][0]
__________________________________________________________________________________________________
expanded_conv_1_depthwise_BN (B (None, 64, 160, 96)  384         expanded_conv_1_depthwise[0][0]  
__________________________________________________________________________________________________
expanded_conv_1_depthwise_relu  (None, 64, 160, 96)  0           expanded_conv_1_depthwise_BN[0][0
__________________________________________________________________________________________________
expanded_conv_1_project (Conv2D (None, 64, 160, 24)  2304        expanded_conv_1_depthwise_relu[0]
__________________________________________________________________________________________________
expanded_conv_1_project_BN (Bat (None, 64, 160, 24)  96          expanded_conv_1_project[0][0]    
__________________________________________________________________________________________________
expanded_conv_2_expand (Conv2D) (None, 64, 160, 144) 3456        expanded_conv_1_project_BN[0][0] 
__________________________________________________________________________________________________
expanded_conv_2_expand_BN (Batc (None, 64, 160, 144) 576         expanded_conv_2_expand[0][0]     
__________________________________________________________________________________________________
expanded_conv_2_expand_relu (La (None, 64, 160, 144) 0           expanded_conv_2_expand_BN[0][0]  
__________________________________________________________________________________________________
expanded_conv_2_depthwise (Dept (None, 64, 160, 144) 1296        expanded_conv_2_expand_relu[0][0]
__________________________________________________________________________________________________
expanded_conv_2_depthwise_BN (B (None, 64, 160, 144) 576         expanded_conv_2_depthwise[0][0]  
__________________________________________________________________________________________________
expanded_conv_2_depthwise_relu  (None, 64, 160, 144) 0           expanded_conv_2_depthwise_BN[0][0
__________________________________________________________________________________________________
expanded_conv_2_project (Conv2D (None, 64, 160, 24)  3456        expanded_conv_2_depthwise_relu[0]
__________________________________________________________________________________________________
expanded_conv_2_project_BN (Bat (None, 64, 160, 24)  96          expanded_conv_2_project[0][0]    
__________________________________________________________________________________________________
expanded_conv_2_add (Add)       (None, 64, 160, 24)  0           expanded_conv_1_project_BN[0][0] 
                                                                 expanded_conv_2_project_BN[0][0] 
__________________________________________________________________________________________________
expanded_conv_3_expand (Conv2D) (None, 64, 160, 144) 3456        expanded_conv_2_add[0][0]        
__________________________________________________________________________________________________
expanded_conv_3_expand_BN (Batc (None, 64, 160, 144) 576         expanded_conv_3_expand[0][0]     
__________________________________________________________________________________________________
expanded_conv_3_expand_relu (La (None, 64, 160, 144) 0           expanded_conv_3_expand_BN[0][0]  
__________________________________________________________________________________________________
expanded_conv_3_depthwise (Dept (None, 32, 80, 144)  1296        expanded_conv_3_expand_relu[0][0]
__________________________________________________________________________________________________
expanded_conv_3_depthwise_BN (B (None, 32, 80, 144)  576         expanded_conv_3_depthwise[0][0]  
__________________________________________________________________________________________________
expanded_conv_3_depthwise_relu  (None, 32, 80, 144)  0           expanded_conv_3_depthwise_BN[0][0
__________________________________________________________________________________________________
expanded_conv_3_project (Conv2D (None, 32, 80, 32)   4608        expanded_conv_3_depthwise_relu[0]
__________________________________________________________________________________________________
expanded_conv_3_project_BN (Bat (None, 32, 80, 32)   128         expanded_conv_3_project[0][0]    
__________________________________________________________________________________________________
expanded_conv_4_expand (Conv2D) (None, 32, 80, 192)  6144        expanded_conv_3_project_BN[0][0] 
__________________________________________________________________________________________________
expanded_conv_4_expand_BN (Batc (None, 32, 80, 192)  768         expanded_conv_4_expand[0][0]     
__________________________________________________________________________________________________
expanded_conv_4_expand_relu (La (None, 32, 80, 192)  0           expanded_conv_4_expand_BN[0][0]  
__________________________________________________________________________________________________
expanded_conv_4_depthwise (Dept (None, 32, 80, 192)  1728        expanded_conv_4_expand_relu[0][0]
__________________________________________________________________________________________________
expanded_conv_4_depthwise_BN (B (None, 32, 80, 192)  768         expanded_conv_4_depthwise[0][0]  
__________________________________________________________________________________________________
expanded_conv_4_depthwise_relu  (None, 32, 80, 192)  0           expanded_conv_4_depthwise_BN[0][0
__________________________________________________________________________________________________
expanded_conv_4_project (Conv2D (None, 32, 80, 32)   6144        expanded_conv_4_depthwise_relu[0]
__________________________________________________________________________________________________
expanded_conv_4_project_BN (Bat (None, 32, 80, 32)   128         expanded_conv_4_project[0][0]    
__________________________________________________________________________________________________
expanded_conv_4_add (Add)       (None, 32, 80, 32)   0           expanded_conv_3_project_BN[0][0] 
                                                                 expanded_conv_4_project_BN[0][0] 
__________________________________________________________________________________________________
expanded_conv_5_expand (Conv2D) (None, 32, 80, 192)  6144        expanded_conv_4_add[0][0]        
__________________________________________________________________________________________________
expanded_conv_5_expand_BN (Batc (None, 32, 80, 192)  768         expanded_conv_5_expand[0][0]     
__________________________________________________________________________________________________
expanded_conv_5_expand_relu (La (None, 32, 80, 192)  0           expanded_conv_5_expand_BN[0][0]  
__________________________________________________________________________________________________
expanded_conv_5_depthwise (Dept (None, 32, 80, 192)  1728        expanded_conv_5_expand_relu[0][0]
__________________________________________________________________________________________________
expanded_conv_5_depthwise_BN (B (None, 32, 80, 192)  768         expanded_conv_5_depthwise[0][0]  
__________________________________________________________________________________________________
expanded_conv_5_depthwise_relu  (None, 32, 80, 192)  0           expanded_conv_5_depthwise_BN[0][0
__________________________________________________________________________________________________
expanded_conv_5_project (Conv2D (None, 32, 80, 32)   6144        expanded_conv_5_depthwise_relu[0]
__________________________________________________________________________________________________
expanded_conv_5_project_BN (Bat (None, 32, 80, 32)   128         expanded_conv_5_project[0][0]    
__________________________________________________________________________________________________
expanded_conv_5_add (Add)       (None, 32, 80, 32)   0           expanded_conv_4_add[0][0]        
                                                                 expanded_conv_5_project_BN[0][0] 
__________________________________________________________________________________________________
expanded_conv_6_expand (Conv2D) (None, 32, 80, 192)  6144        expanded_conv_5_add[0][0]        
__________________________________________________________________________________________________
expanded_conv_6_expand_BN (Batc (None, 32, 80, 192)  768         expanded_conv_6_expand[0][0]     
__________________________________________________________________________________________________
expanded_conv_6_expand_relu (La (None, 32, 80, 192)  0           expanded_conv_6_expand_BN[0][0]  
__________________________________________________________________________________________________
expanded_conv_6_depthwise (Dept (None, 32, 80, 192)  1728        expanded_conv_6_expand_relu[0][0]
__________________________________________________________________________________________________
expanded_conv_6_depthwise_BN (B (None, 32, 80, 192)  768         expanded_conv_6_depthwise[0][0]  
__________________________________________________________________________________________________
expanded_conv_6_depthwise_relu  (None, 32, 80, 192)  0           expanded_conv_6_depthwise_BN[0][0
__________________________________________________________________________________________________
expanded_conv_6_project (Conv2D (None, 32, 80, 64)   12288       expanded_conv_6_depthwise_relu[0]
__________________________________________________________________________________________________
expanded_conv_6_project_BN (Bat (None, 32, 80, 64)   256         expanded_conv_6_project[0][0]    
__________________________________________________________________________________________________
expanded_conv_7_expand (Conv2D) (None, 32, 80, 384)  24576       expanded_conv_6_project_BN[0][0] 
__________________________________________________________________________________________________
expanded_conv_7_expand_BN (Batc (None, 32, 80, 384)  1536        expanded_conv_7_expand[0][0]     
__________________________________________________________________________________________________
expanded_conv_7_expand_relu (La (None, 32, 80, 384)  0           expanded_conv_7_expand_BN[0][0]  
__________________________________________________________________________________________________
expanded_conv_7_depthwise (Dept (None, 32, 80, 384)  3456        expanded_conv_7_expand_relu[0][0]
__________________________________________________________________________________________________
expanded_conv_7_depthwise_BN (B (None, 32, 80, 384)  1536        expanded_conv_7_depthwise[0][0]  
__________________________________________________________________________________________________
expanded_conv_7_depthwise_relu  (None, 32, 80, 384)  0           expanded_conv_7_depthwise_BN[0][0
__________________________________________________________________________________________________
expanded_conv_7_project (Conv2D (None, 32, 80, 64)   24576       expanded_conv_7_depthwise_relu[0]
__________________________________________________________________________________________________
expanded_conv_7_project_BN (Bat (None, 32, 80, 64)   256         expanded_conv_7_project[0][0]    
__________________________________________________________________________________________________
expanded_conv_7_add (Add)       (None, 32, 80, 64)   0           expanded_conv_6_project_BN[0][0] 
                                                                 expanded_conv_7_project_BN[0][0] 
__________________________________________________________________________________________________
expanded_conv_8_expand (Conv2D) (None, 32, 80, 384)  24576       expanded_conv_7_add[0][0]        
__________________________________________________________________________________________________
expanded_conv_8_expand_BN (Batc (None, 32, 80, 384)  1536        expanded_conv_8_expand[0][0]     
__________________________________________________________________________________________________
expanded_conv_8_expand_relu (La (None, 32, 80, 384)  0           expanded_conv_8_expand_BN[0][0]  
__________________________________________________________________________________________________
expanded_conv_8_depthwise (Dept (None, 32, 80, 384)  3456        expanded_conv_8_expand_relu[0][0]
__________________________________________________________________________________________________
expanded_conv_8_depthwise_BN (B (None, 32, 80, 384)  1536        expanded_conv_8_depthwise[0][0]  
__________________________________________________________________________________________________
expanded_conv_8_depthwise_relu  (None, 32, 80, 384)  0           expanded_conv_8_depthwise_BN[0][0
__________________________________________________________________________________________________
expanded_conv_8_project (Conv2D (None, 32, 80, 64)   24576       expanded_conv_8_depthwise_relu[0]
__________________________________________________________________________________________________
expanded_conv_8_project_BN (Bat (None, 32, 80, 64)   256         expanded_conv_8_project[0][0]    
__________________________________________________________________________________________________
expanded_conv_8_add (Add)       (None, 32, 80, 64)   0           expanded_conv_7_add[0][0]        
                                                                 expanded_conv_8_project_BN[0][0] 
__________________________________________________________________________________________________
expanded_conv_9_expand (Conv2D) (None, 32, 80, 384)  24576       expanded_conv_8_add[0][0]        
__________________________________________________________________________________________________
expanded_conv_9_expand_BN (Batc (None, 32, 80, 384)  1536        expanded_conv_9_expand[0][0]     
__________________________________________________________________________________________________
expanded_conv_9_expand_relu (La (None, 32, 80, 384)  0           expanded_conv_9_expand_BN[0][0]  
__________________________________________________________________________________________________
expanded_conv_9_depthwise (Dept (None, 32, 80, 384)  3456        expanded_conv_9_expand_relu[0][0]
__________________________________________________________________________________________________
expanded_conv_9_depthwise_BN (B (None, 32, 80, 384)  1536        expanded_conv_9_depthwise[0][0]  
__________________________________________________________________________________________________
expanded_conv_9_depthwise_relu  (None, 32, 80, 384)  0           expanded_conv_9_depthwise_BN[0][0
__________________________________________________________________________________________________
expanded_conv_9_project (Conv2D (None, 32, 80, 64)   24576       expanded_conv_9_depthwise_relu[0]
__________________________________________________________________________________________________
expanded_conv_9_project_BN (Bat (None, 32, 80, 64)   256         expanded_conv_9_project[0][0]    
__________________________________________________________________________________________________
expanded_conv_9_add (Add)       (None, 32, 80, 64)   0           expanded_conv_8_add[0][0]        
                                                                 expanded_conv_9_project_BN[0][0] 
__________________________________________________________________________________________________
expanded_conv_10_expand (Conv2D (None, 32, 80, 384)  24576       expanded_conv_9_add[0][0]        
__________________________________________________________________________________________________
expanded_conv_10_expand_BN (Bat (None, 32, 80, 384)  1536        expanded_conv_10_expand[0][0]    
__________________________________________________________________________________________________
expanded_conv_10_expand_relu (L (None, 32, 80, 384)  0           expanded_conv_10_expand_BN[0][0] 
__________________________________________________________________________________________________
expanded_conv_10_depthwise (Dep (None, 32, 80, 384)  3456        expanded_conv_10_expand_relu[0][0
__________________________________________________________________________________________________
expanded_conv_10_depthwise_BN ( (None, 32, 80, 384)  1536        expanded_conv_10_depthwise[0][0] 
__________________________________________________________________________________________________
expanded_conv_10_depthwise_relu (None, 32, 80, 384)  0           expanded_conv_10_depthwise_BN[0][
__________________________________________________________________________________________________
expanded_conv_10_project (Conv2 (None, 32, 80, 96)   36864       expanded_conv_10_depthwise_relu[0
__________________________________________________________________________________________________
expanded_conv_10_project_BN (Ba (None, 32, 80, 96)   384         expanded_conv_10_project[0][0]   
__________________________________________________________________________________________________
expanded_conv_11_expand (Conv2D (None, 32, 80, 576)  55296       expanded_conv_10_project_BN[0][0]
__________________________________________________________________________________________________
expanded_conv_11_expand_BN (Bat (None, 32, 80, 576)  2304        expanded_conv_11_expand[0][0]    
__________________________________________________________________________________________________
expanded_conv_11_expand_relu (L (None, 32, 80, 576)  0           expanded_conv_11_expand_BN[0][0] 
__________________________________________________________________________________________________
expanded_conv_11_depthwise (Dep (None, 32, 80, 576)  5184        expanded_conv_11_expand_relu[0][0
__________________________________________________________________________________________________
expanded_conv_11_depthwise_BN ( (None, 32, 80, 576)  2304        expanded_conv_11_depthwise[0][0] 
__________________________________________________________________________________________________
expanded_conv_11_depthwise_relu (None, 32, 80, 576)  0           expanded_conv_11_depthwise_BN[0][
__________________________________________________________________________________________________
expanded_conv_11_project (Conv2 (None, 32, 80, 96)   55296       expanded_conv_11_depthwise_relu[0
__________________________________________________________________________________________________
expanded_conv_11_project_BN (Ba (None, 32, 80, 96)   384         expanded_conv_11_project[0][0]   
__________________________________________________________________________________________________
expanded_conv_11_add (Add)      (None, 32, 80, 96)   0           expanded_conv_10_project_BN[0][0]
                                                                 expanded_conv_11_project_BN[0][0]
__________________________________________________________________________________________________
expanded_conv_12_expand (Conv2D (None, 32, 80, 576)  55296       expanded_conv_11_add[0][0]       
__________________________________________________________________________________________________
expanded_conv_12_expand_BN (Bat (None, 32, 80, 576)  2304        expanded_conv_12_expand[0][0]    
__________________________________________________________________________________________________
expanded_conv_12_expand_relu (L (None, 32, 80, 576)  0           expanded_conv_12_expand_BN[0][0] 
__________________________________________________________________________________________________
expanded_conv_12_depthwise (Dep (None, 32, 80, 576)  5184        expanded_conv_12_expand_relu[0][0
__________________________________________________________________________________________________
expanded_conv_12_depthwise_BN ( (None, 32, 80, 576)  2304        expanded_conv_12_depthwise[0][0] 
__________________________________________________________________________________________________
expanded_conv_12_depthwise_relu (None, 32, 80, 576)  0           expanded_conv_12_depthwise_BN[0][
__________________________________________________________________________________________________
expanded_conv_12_project (Conv2 (None, 32, 80, 96)   55296       expanded_conv_12_depthwise_relu[0
__________________________________________________________________________________________________
expanded_conv_12_project_BN (Ba (None, 32, 80, 96)   384         expanded_conv_12_project[0][0]   
__________________________________________________________________________________________________
expanded_conv_12_add (Add)      (None, 32, 80, 96)   0           expanded_conv_11_add[0][0]       
                                                                 expanded_conv_12_project_BN[0][0]
__________________________________________________________________________________________________
expanded_conv_13_expand (Conv2D (None, 32, 80, 576)  55296       expanded_conv_12_add[0][0]       
__________________________________________________________________________________________________
expanded_conv_13_expand_BN (Bat (None, 32, 80, 576)  2304        expanded_conv_13_expand[0][0]    
__________________________________________________________________________________________________
expanded_conv_13_expand_relu (L (None, 32, 80, 576)  0           expanded_conv_13_expand_BN[0][0] 
__________________________________________________________________________________________________
expanded_conv_13_depthwise (Dep (None, 32, 80, 576)  5184        expanded_conv_13_expand_relu[0][0
__________________________________________________________________________________________________
expanded_conv_13_depthwise_BN ( (None, 32, 80, 576)  2304        expanded_conv_13_depthwise[0][0] 
__________________________________________________________________________________________________
expanded_conv_13_depthwise_relu (None, 32, 80, 576)  0           expanded_conv_13_depthwise_BN[0][
__________________________________________________________________________________________________
expanded_conv_13_project (Conv2 (None, 32, 80, 160)  92160       expanded_conv_13_depthwise_relu[0
__________________________________________________________________________________________________
expanded_conv_13_project_BN (Ba (None, 32, 80, 160)  640         expanded_conv_13_project[0][0]   
__________________________________________________________________________________________________
expanded_conv_14_expand (Conv2D (None, 32, 80, 960)  153600      expanded_conv_13_project_BN[0][0]
__________________________________________________________________________________________________
expanded_conv_14_expand_BN (Bat (None, 32, 80, 960)  3840        expanded_conv_14_expand[0][0]    
__________________________________________________________________________________________________
expanded_conv_14_expand_relu (L (None, 32, 80, 960)  0           expanded_conv_14_expand_BN[0][0] 
__________________________________________________________________________________________________
expanded_conv_14_depthwise (Dep (None, 32, 80, 960)  8640        expanded_conv_14_expand_relu[0][0
__________________________________________________________________________________________________
expanded_conv_14_depthwise_BN ( (None, 32, 80, 960)  3840        expanded_conv_14_depthwise[0][0] 
__________________________________________________________________________________________________
expanded_conv_14_depthwise_relu (None, 32, 80, 960)  0           expanded_conv_14_depthwise_BN[0][
__________________________________________________________________________________________________
expanded_conv_14_project (Conv2 (None, 32, 80, 160)  153600      expanded_conv_14_depthwise_relu[0
__________________________________________________________________________________________________
expanded_conv_14_project_BN (Ba (None, 32, 80, 160)  640         expanded_conv_14_project[0][0]   
__________________________________________________________________________________________________
expanded_conv_14_add (Add)      (None, 32, 80, 160)  0           expanded_conv_13_project_BN[0][0]
                                                                 expanded_conv_14_project_BN[0][0]
__________________________________________________________________________________________________
expanded_conv_15_expand (Conv2D (None, 32, 80, 960)  153600      expanded_conv_14_add[0][0]       
__________________________________________________________________________________________________
expanded_conv_15_expand_BN (Bat (None, 32, 80, 960)  3840        expanded_conv_15_expand[0][0]    
__________________________________________________________________________________________________
expanded_conv_15_expand_relu (L (None, 32, 80, 960)  0           expanded_conv_15_expand_BN[0][0] 
__________________________________________________________________________________________________
expanded_conv_15_depthwise (Dep (None, 32, 80, 960)  8640        expanded_conv_15_expand_relu[0][0
__________________________________________________________________________________________________
expanded_conv_15_depthwise_BN ( (None, 32, 80, 960)  3840        expanded_conv_15_depthwise[0][0] 
__________________________________________________________________________________________________
expanded_conv_15_depthwise_relu (None, 32, 80, 960)  0           expanded_conv_15_depthwise_BN[0][
__________________________________________________________________________________________________
expanded_conv_15_project (Conv2 (None, 32, 80, 160)  153600      expanded_conv_15_depthwise_relu[0
__________________________________________________________________________________________________
expanded_conv_15_project_BN (Ba (None, 32, 80, 160)  640         expanded_conv_15_project[0][0]   
__________________________________________________________________________________________________
expanded_conv_15_add (Add)      (None, 32, 80, 160)  0           expanded_conv_14_add[0][0]       
                                                                 expanded_conv_15_project_BN[0][0]
__________________________________________________________________________________________________
expanded_conv_16_expand (Conv2D (None, 32, 80, 960)  153600      expanded_conv_15_add[0][0]       
__________________________________________________________________________________________________
expanded_conv_16_expand_BN (Bat (None, 32, 80, 960)  3840        expanded_conv_16_expand[0][0]    
__________________________________________________________________________________________________
expanded_conv_16_expand_relu (L (None, 32, 80, 960)  0           expanded_conv_16_expand_BN[0][0] 
__________________________________________________________________________________________________
expanded_conv_16_depthwise (Dep (None, 32, 80, 960)  8640        expanded_conv_16_expand_relu[0][0
__________________________________________________________________________________________________
expanded_conv_16_depthwise_BN ( (None, 32, 80, 960)  3840        expanded_conv_16_depthwise[0][0] 
__________________________________________________________________________________________________
expanded_conv_16_depthwise_relu (None, 32, 80, 960)  0           expanded_conv_16_depthwise_BN[0][
__________________________________________________________________________________________________
expanded_conv_16_project (Conv2 (None, 32, 80, 320)  307200      expanded_conv_16_depthwise_relu[0
__________________________________________________________________________________________________
expanded_conv_16_project_BN (Ba (None, 32, 80, 320)  1280        expanded_conv_16_project[0][0]   
__________________________________________________________________________________________________
average_pooling2d_1 (AveragePoo (None, 1, 1, 320)    0           expanded_conv_16_project_BN[0][0]
__________________________________________________________________________________________________
image_pooling (Conv2D)          (None, 1, 1, 256)    81920       average_pooling2d_1[0][0]        
__________________________________________________________________________________________________
image_pooling_BN (BatchNormaliz (None, 1, 1, 256)    1024        image_pooling[0][0]              
__________________________________________________________________________________________________
aspp0 (Conv2D)                  (None, 32, 80, 256)  81920       expanded_conv_16_project_BN[0][0]
__________________________________________________________________________________________________
activation_1 (Activation)       (None, 1, 1, 256)    0           image_pooling_BN[0][0]           
__________________________________________________________________________________________________
aspp0_BN (BatchNormalization)   (None, 32, 80, 256)  1024        aspp0[0][0]                      
__________________________________________________________________________________________________
lambda_3 (Lambda)               (None, 32, 80, 256)  0           activation_1[0][0]               
__________________________________________________________________________________________________
aspp0_activation (Activation)   (None, 32, 80, 256)  0           aspp0_BN[0][0]                   
__________________________________________________________________________________________________
concatenate_1 (Concatenate)     (None, 32, 80, 512)  0           lambda_3[0][0]                   
                                                                 aspp0_activation[0][0]           
__________________________________________________________________________________________________
concat_projection (Conv2D)      (None, 32, 80, 256)  131072      concatenate_1[0][0]              
__________________________________________________________________________________________________
concat_projection_BN (BatchNorm (None, 32, 80, 256)  1024        concat_projection[0][0]          
__________________________________________________________________________________________________
activation_2 (Activation)       (None, 32, 80, 256)  0           concat_projection_BN[0][0]       
__________________________________________________________________________________________________
dropout_1 (Dropout)             (None, 32, 80, 256)  0           activation_2[0][0]               
__________________________________________________________________________________________________
subpixel_1 (Subpixel)           (None, 256, 640, 3)  49344       dropout_1[0][0]                  
__________________________________________________________________________________________________
reshape_2 (Reshape)             (None, 163840, 3)    0           subpixel_1[0][0]                 
__________________________________________________________________________________________________
pred_mask (Activation)          (None, 163840, 3)    0           reshape_2[0][0]                  
==================================================================================================
Total params: 2,190,592
Trainable params: 49,344
Non-trainable params: 2,141,248
__________________________________________________________________________________________________
Optimizer: <keras.optimizers.Adam object at 0x7fe71dd0bc88>, learning rate: 0.0007, loss: ['categorical_crossentropy'], metrics: ['accuracy']
…
