…
==================================================================================================
Total params: 25,784,030
Trainable params: 25,763,544
Non-trainable params: 20,486
__________________________________________________________________________________________________
Model summary:
__________________________________________________________________________________________________
Layer (type)                    Output Shape         Param #     Connected to                     
==================================================================================================
data (InputLayer)               (None, 256, 640, 3)  0                                            
__________________________________________________________________________________________________
bn_data (BatchNormalization)    (None, 256, 640, 3)  9           data[0][0]                       
__________________________________________________________________________________________________
zero_padding2d_137 (ZeroPadding (None, 262, 646, 3)  0           bn_data[0][0]                    
__________________________________________________________________________________________________
conv0 (Conv2D)                  (None, 128, 320, 64) 9408        zero_padding2d_137[0][0]         
__________________________________________________________________________________________________
bn0 (BatchNormalization)        (None, 128, 320, 64) 256         conv0[0][0]                      
__________________________________________________________________________________________________
relu0 (Activation)              (None, 128, 320, 64) 0           bn0[0][0]                        
__________________________________________________________________________________________________
zero_padding2d_138 (ZeroPadding (None, 130, 322, 64) 0           relu0[0][0]                      
__________________________________________________________________________________________________
pooling0 (MaxPooling2D)         (None, 64, 160, 64)  0           zero_padding2d_138[0][0]         
__________________________________________________________________________________________________
stage1_unit1_bn1 (BatchNormaliz (None, 64, 160, 64)  256         pooling0[0][0]                   
__________________________________________________________________________________________________
stage1_unit1_relu1 (Activation) (None, 64, 160, 64)  0           stage1_unit1_bn1[0][0]           
__________________________________________________________________________________________________
zero_padding2d_139 (ZeroPadding (None, 66, 162, 64)  0           stage1_unit1_relu1[0][0]         
__________________________________________________________________________________________________
stage1_unit1_conv1 (Conv2D)     (None, 64, 160, 64)  36864       zero_padding2d_139[0][0]         
__________________________________________________________________________________________________
stage1_unit1_bn2 (BatchNormaliz (None, 64, 160, 64)  256         stage1_unit1_conv1[0][0]         
__________________________________________________________________________________________________
stage1_unit1_relu2 (Activation) (None, 64, 160, 64)  0           stage1_unit1_bn2[0][0]           
__________________________________________________________________________________________________
zero_padding2d_140 (ZeroPadding (None, 66, 162, 64)  0           stage1_unit1_relu2[0][0]         
__________________________________________________________________________________________________
stage1_unit1_conv2 (Conv2D)     (None, 64, 160, 64)  36864       zero_padding2d_140[0][0]         
__________________________________________________________________________________________________
stage1_unit1_sc (Conv2D)        (None, 64, 160, 64)  4096        stage1_unit1_relu1[0][0]         
__________________________________________________________________________________________________
add_68 (Add)                    (None, 64, 160, 64)  0           stage1_unit1_conv2[0][0]         
                                                                 stage1_unit1_sc[0][0]            
__________________________________________________________________________________________________
stage1_unit2_bn1 (BatchNormaliz (None, 64, 160, 64)  256         add_68[0][0]                     
__________________________________________________________________________________________________
stage1_unit2_relu1 (Activation) (None, 64, 160, 64)  0           stage1_unit2_bn1[0][0]           
__________________________________________________________________________________________________
zero_padding2d_141 (ZeroPadding (None, 66, 162, 64)  0           stage1_unit2_relu1[0][0]         
__________________________________________________________________________________________________
stage1_unit2_conv1 (Conv2D)     (None, 64, 160, 64)  36864       zero_padding2d_141[0][0]         
__________________________________________________________________________________________________
stage1_unit2_bn2 (BatchNormaliz (None, 64, 160, 64)  256         stage1_unit2_conv1[0][0]         
__________________________________________________________________________________________________
stage1_unit2_relu2 (Activation) (None, 64, 160, 64)  0           stage1_unit2_bn2[0][0]           
__________________________________________________________________________________________________
zero_padding2d_142 (ZeroPadding (None, 66, 162, 64)  0           stage1_unit2_relu2[0][0]         
__________________________________________________________________________________________________
stage1_unit2_conv2 (Conv2D)     (None, 64, 160, 64)  36864       zero_padding2d_142[0][0]         
__________________________________________________________________________________________________
add_69 (Add)                    (None, 64, 160, 64)  0           stage1_unit2_conv2[0][0]         
                                                                 add_68[0][0]                     
__________________________________________________________________________________________________
stage1_unit3_bn1 (BatchNormaliz (None, 64, 160, 64)  256         add_69[0][0]                     
__________________________________________________________________________________________________
stage1_unit3_relu1 (Activation) (None, 64, 160, 64)  0           stage1_unit3_bn1[0][0]           
__________________________________________________________________________________________________
zero_padding2d_143 (ZeroPadding (None, 66, 162, 64)  0           stage1_unit3_relu1[0][0]         
__________________________________________________________________________________________________
stage1_unit3_conv1 (Conv2D)     (None, 64, 160, 64)  36864       zero_padding2d_143[0][0]         
__________________________________________________________________________________________________
stage1_unit3_bn2 (BatchNormaliz (None, 64, 160, 64)  256         stage1_unit3_conv1[0][0]         
__________________________________________________________________________________________________
stage1_unit3_relu2 (Activation) (None, 64, 160, 64)  0           stage1_unit3_bn2[0][0]           
__________________________________________________________________________________________________
zero_padding2d_144 (ZeroPadding (None, 66, 162, 64)  0           stage1_unit3_relu2[0][0]         
__________________________________________________________________________________________________
stage1_unit3_conv2 (Conv2D)     (None, 64, 160, 64)  36864       zero_padding2d_144[0][0]         
__________________________________________________________________________________________________
add_70 (Add)                    (None, 64, 160, 64)  0           stage1_unit3_conv2[0][0]         
                                                                 add_69[0][0]                     
__________________________________________________________________________________________________
stage2_unit1_bn1 (BatchNormaliz (None, 64, 160, 64)  256         add_70[0][0]                     
__________________________________________________________________________________________________
stage2_unit1_relu1 (Activation) (None, 64, 160, 64)  0           stage2_unit1_bn1[0][0]           
__________________________________________________________________________________________________
zero_padding2d_145 (ZeroPadding (None, 66, 162, 64)  0           stage2_unit1_relu1[0][0]         
__________________________________________________________________________________________________
stage2_unit1_conv1 (Conv2D)     (None, 32, 80, 128)  73728       zero_padding2d_145[0][0]         
__________________________________________________________________________________________________
stage2_unit1_bn2 (BatchNormaliz (None, 32, 80, 128)  512         stage2_unit1_conv1[0][0]         
__________________________________________________________________________________________________
stage2_unit1_relu2 (Activation) (None, 32, 80, 128)  0           stage2_unit1_bn2[0][0]           
__________________________________________________________________________________________________
zero_padding2d_146 (ZeroPadding (None, 34, 82, 128)  0           stage2_unit1_relu2[0][0]         
__________________________________________________________________________________________________
stage2_unit1_conv2 (Conv2D)     (None, 32, 80, 128)  147456      zero_padding2d_146[0][0]         
__________________________________________________________________________________________________
stage2_unit1_sc (Conv2D)        (None, 32, 80, 128)  8192        stage2_unit1_relu1[0][0]         
__________________________________________________________________________________________________
add_71 (Add)                    (None, 32, 80, 128)  0           stage2_unit1_conv2[0][0]         
                                                                 stage2_unit1_sc[0][0]            
__________________________________________________________________________________________________
stage2_unit2_bn1 (BatchNormaliz (None, 32, 80, 128)  512         add_71[0][0]                     
__________________________________________________________________________________________________
stage2_unit2_relu1 (Activation) (None, 32, 80, 128)  0           stage2_unit2_bn1[0][0]           
__________________________________________________________________________________________________
zero_padding2d_147 (ZeroPadding (None, 34, 82, 128)  0           stage2_unit2_relu1[0][0]         
__________________________________________________________________________________________________
stage2_unit2_conv1 (Conv2D)     (None, 32, 80, 128)  147456      zero_padding2d_147[0][0]         
__________________________________________________________________________________________________
stage2_unit2_bn2 (BatchNormaliz (None, 32, 80, 128)  512         stage2_unit2_conv1[0][0]         
__________________________________________________________________________________________________
stage2_unit2_relu2 (Activation) (None, 32, 80, 128)  0           stage2_unit2_bn2[0][0]           
__________________________________________________________________________________________________
zero_padding2d_148 (ZeroPadding (None, 34, 82, 128)  0           stage2_unit2_relu2[0][0]         
__________________________________________________________________________________________________
stage2_unit2_conv2 (Conv2D)     (None, 32, 80, 128)  147456      zero_padding2d_148[0][0]         
__________________________________________________________________________________________________
add_72 (Add)                    (None, 32, 80, 128)  0           stage2_unit2_conv2[0][0]         
                                                                 add_71[0][0]                     
__________________________________________________________________________________________________
stage2_unit3_bn1 (BatchNormaliz (None, 32, 80, 128)  512         add_72[0][0]                     
__________________________________________________________________________________________________
stage2_unit3_relu1 (Activation) (None, 32, 80, 128)  0           stage2_unit3_bn1[0][0]           
__________________________________________________________________________________________________
zero_padding2d_149 (ZeroPadding (None, 34, 82, 128)  0           stage2_unit3_relu1[0][0]         
__________________________________________________________________________________________________
stage2_unit3_conv1 (Conv2D)     (None, 32, 80, 128)  147456      zero_padding2d_149[0][0]         
__________________________________________________________________________________________________
stage2_unit3_bn2 (BatchNormaliz (None, 32, 80, 128)  512         stage2_unit3_conv1[0][0]         
__________________________________________________________________________________________________
stage2_unit3_relu2 (Activation) (None, 32, 80, 128)  0           stage2_unit3_bn2[0][0]           
__________________________________________________________________________________________________
zero_padding2d_150 (ZeroPadding (None, 34, 82, 128)  0           stage2_unit3_relu2[0][0]         
__________________________________________________________________________________________________
stage2_unit3_conv2 (Conv2D)     (None, 32, 80, 128)  147456      zero_padding2d_150[0][0]         
__________________________________________________________________________________________________
add_73 (Add)                    (None, 32, 80, 128)  0           stage2_unit3_conv2[0][0]         
                                                                 add_72[0][0]                     
__________________________________________________________________________________________________
stage2_unit4_bn1 (BatchNormaliz (None, 32, 80, 128)  512         add_73[0][0]                     
__________________________________________________________________________________________________
stage2_unit4_relu1 (Activation) (None, 32, 80, 128)  0           stage2_unit4_bn1[0][0]           
__________________________________________________________________________________________________
zero_padding2d_151 (ZeroPadding (None, 34, 82, 128)  0           stage2_unit4_relu1[0][0]         
__________________________________________________________________________________________________
stage2_unit4_conv1 (Conv2D)     (None, 32, 80, 128)  147456      zero_padding2d_151[0][0]         
__________________________________________________________________________________________________
stage2_unit4_bn2 (BatchNormaliz (None, 32, 80, 128)  512         stage2_unit4_conv1[0][0]         
__________________________________________________________________________________________________
stage2_unit4_relu2 (Activation) (None, 32, 80, 128)  0           stage2_unit4_bn2[0][0]           
__________________________________________________________________________________________________
zero_padding2d_152 (ZeroPadding (None, 34, 82, 128)  0           stage2_unit4_relu2[0][0]         
__________________________________________________________________________________________________
stage2_unit4_conv2 (Conv2D)     (None, 32, 80, 128)  147456      zero_padding2d_152[0][0]         
__________________________________________________________________________________________________
add_74 (Add)                    (None, 32, 80, 128)  0           stage2_unit4_conv2[0][0]         
                                                                 add_73[0][0]                     
__________________________________________________________________________________________________
stage3_unit1_bn1 (BatchNormaliz (None, 32, 80, 128)  512         add_74[0][0]                     
__________________________________________________________________________________________________
stage3_unit1_relu1 (Activation) (None, 32, 80, 128)  0           stage3_unit1_bn1[0][0]           
__________________________________________________________________________________________________
zero_padding2d_153 (ZeroPadding (None, 34, 82, 128)  0           stage3_unit1_relu1[0][0]         
__________________________________________________________________________________________________
stage3_unit1_conv1 (Conv2D)     (None, 16, 40, 256)  294912      zero_padding2d_153[0][0]         
__________________________________________________________________________________________________
stage3_unit1_bn2 (BatchNormaliz (None, 16, 40, 256)  1024        stage3_unit1_conv1[0][0]         
__________________________________________________________________________________________________
stage3_unit1_relu2 (Activation) (None, 16, 40, 256)  0           stage3_unit1_bn2[0][0]           
__________________________________________________________________________________________________
zero_padding2d_154 (ZeroPadding (None, 18, 42, 256)  0           stage3_unit1_relu2[0][0]         
__________________________________________________________________________________________________
stage3_unit1_conv2 (Conv2D)     (None, 16, 40, 256)  589824      zero_padding2d_154[0][0]         
__________________________________________________________________________________________________
stage3_unit1_sc (Conv2D)        (None, 16, 40, 256)  32768       stage3_unit1_relu1[0][0]         
__________________________________________________________________________________________________
add_75 (Add)                    (None, 16, 40, 256)  0           stage3_unit1_conv2[0][0]         
                                                                 stage3_unit1_sc[0][0]            
__________________________________________________________________________________________________
stage3_unit2_bn1 (BatchNormaliz (None, 16, 40, 256)  1024        add_75[0][0]                     
__________________________________________________________________________________________________
stage3_unit2_relu1 (Activation) (None, 16, 40, 256)  0           stage3_unit2_bn1[0][0]           
__________________________________________________________________________________________________
zero_padding2d_155 (ZeroPadding (None, 18, 42, 256)  0           stage3_unit2_relu1[0][0]         
__________________________________________________________________________________________________
stage3_unit2_conv1 (Conv2D)     (None, 16, 40, 256)  589824      zero_padding2d_155[0][0]         
__________________________________________________________________________________________________
stage3_unit2_bn2 (BatchNormaliz (None, 16, 40, 256)  1024        stage3_unit2_conv1[0][0]         
__________________________________________________________________________________________________
stage3_unit2_relu2 (Activation) (None, 16, 40, 256)  0           stage3_unit2_bn2[0][0]           
__________________________________________________________________________________________________
zero_padding2d_156 (ZeroPadding (None, 18, 42, 256)  0           stage3_unit2_relu2[0][0]         
__________________________________________________________________________________________________
stage3_unit2_conv2 (Conv2D)     (None, 16, 40, 256)  589824      zero_padding2d_156[0][0]         
__________________________________________________________________________________________________
add_76 (Add)                    (None, 16, 40, 256)  0           stage3_unit2_conv2[0][0]         
                                                                 add_75[0][0]                     
__________________________________________________________________________________________________
stage3_unit3_bn1 (BatchNormaliz (None, 16, 40, 256)  1024        add_76[0][0]                     
__________________________________________________________________________________________________
stage3_unit3_relu1 (Activation) (None, 16, 40, 256)  0           stage3_unit3_bn1[0][0]           
__________________________________________________________________________________________________
zero_padding2d_157 (ZeroPadding (None, 18, 42, 256)  0           stage3_unit3_relu1[0][0]         
__________________________________________________________________________________________________
stage3_unit3_conv1 (Conv2D)     (None, 16, 40, 256)  589824      zero_padding2d_157[0][0]         
__________________________________________________________________________________________________
stage3_unit3_bn2 (BatchNormaliz (None, 16, 40, 256)  1024        stage3_unit3_conv1[0][0]         
__________________________________________________________________________________________________
stage3_unit3_relu2 (Activation) (None, 16, 40, 256)  0           stage3_unit3_bn2[0][0]           
__________________________________________________________________________________________________
zero_padding2d_158 (ZeroPadding (None, 18, 42, 256)  0           stage3_unit3_relu2[0][0]         
__________________________________________________________________________________________________
stage3_unit3_conv2 (Conv2D)     (None, 16, 40, 256)  589824      zero_padding2d_158[0][0]         
__________________________________________________________________________________________________
add_77 (Add)                    (None, 16, 40, 256)  0           stage3_unit3_conv2[0][0]         
                                                                 add_76[0][0]                     
__________________________________________________________________________________________________
stage3_unit4_bn1 (BatchNormaliz (None, 16, 40, 256)  1024        add_77[0][0]                     
__________________________________________________________________________________________________
stage3_unit4_relu1 (Activation) (None, 16, 40, 256)  0           stage3_unit4_bn1[0][0]           
__________________________________________________________________________________________________
zero_padding2d_159 (ZeroPadding (None, 18, 42, 256)  0           stage3_unit4_relu1[0][0]         
__________________________________________________________________________________________________
stage3_unit4_conv1 (Conv2D)     (None, 16, 40, 256)  589824      zero_padding2d_159[0][0]         
__________________________________________________________________________________________________
stage3_unit4_bn2 (BatchNormaliz (None, 16, 40, 256)  1024        stage3_unit4_conv1[0][0]         
__________________________________________________________________________________________________
stage3_unit4_relu2 (Activation) (None, 16, 40, 256)  0           stage3_unit4_bn2[0][0]           
__________________________________________________________________________________________________
zero_padding2d_160 (ZeroPadding (None, 18, 42, 256)  0           stage3_unit4_relu2[0][0]         
__________________________________________________________________________________________________
stage3_unit4_conv2 (Conv2D)     (None, 16, 40, 256)  589824      zero_padding2d_160[0][0]         
__________________________________________________________________________________________________
add_78 (Add)                    (None, 16, 40, 256)  0           stage3_unit4_conv2[0][0]         
                                                                 add_77[0][0]                     
__________________________________________________________________________________________________
stage3_unit5_bn1 (BatchNormaliz (None, 16, 40, 256)  1024        add_78[0][0]                     
__________________________________________________________________________________________________
stage3_unit5_relu1 (Activation) (None, 16, 40, 256)  0           stage3_unit5_bn1[0][0]           
__________________________________________________________________________________________________
zero_padding2d_161 (ZeroPadding (None, 18, 42, 256)  0           stage3_unit5_relu1[0][0]         
__________________________________________________________________________________________________
stage3_unit5_conv1 (Conv2D)     (None, 16, 40, 256)  589824      zero_padding2d_161[0][0]         
__________________________________________________________________________________________________
stage3_unit5_bn2 (BatchNormaliz (None, 16, 40, 256)  1024        stage3_unit5_conv1[0][0]         
__________________________________________________________________________________________________
stage3_unit5_relu2 (Activation) (None, 16, 40, 256)  0           stage3_unit5_bn2[0][0]           
__________________________________________________________________________________________________
zero_padding2d_162 (ZeroPadding (None, 18, 42, 256)  0           stage3_unit5_relu2[0][0]         
__________________________________________________________________________________________________
stage3_unit5_conv2 (Conv2D)     (None, 16, 40, 256)  589824      zero_padding2d_162[0][0]         
__________________________________________________________________________________________________
add_79 (Add)                    (None, 16, 40, 256)  0           stage3_unit5_conv2[0][0]         
                                                                 add_78[0][0]                     
__________________________________________________________________________________________________
stage3_unit6_bn1 (BatchNormaliz (None, 16, 40, 256)  1024        add_79[0][0]                     
__________________________________________________________________________________________________
stage3_unit6_relu1 (Activation) (None, 16, 40, 256)  0           stage3_unit6_bn1[0][0]           
__________________________________________________________________________________________________
zero_padding2d_163 (ZeroPadding (None, 18, 42, 256)  0           stage3_unit6_relu1[0][0]         
__________________________________________________________________________________________________
stage3_unit6_conv1 (Conv2D)     (None, 16, 40, 256)  589824      zero_padding2d_163[0][0]         
__________________________________________________________________________________________________
stage3_unit6_bn2 (BatchNormaliz (None, 16, 40, 256)  1024        stage3_unit6_conv1[0][0]         
__________________________________________________________________________________________________
stage3_unit6_relu2 (Activation) (None, 16, 40, 256)  0           stage3_unit6_bn2[0][0]           
__________________________________________________________________________________________________
zero_padding2d_164 (ZeroPadding (None, 18, 42, 256)  0           stage3_unit6_relu2[0][0]         
__________________________________________________________________________________________________
stage3_unit6_conv2 (Conv2D)     (None, 16, 40, 256)  589824      zero_padding2d_164[0][0]         
__________________________________________________________________________________________________
add_80 (Add)                    (None, 16, 40, 256)  0           stage3_unit6_conv2[0][0]         
                                                                 add_79[0][0]                     
__________________________________________________________________________________________________
stage4_unit1_bn1 (BatchNormaliz (None, 16, 40, 256)  1024        add_80[0][0]                     
__________________________________________________________________________________________________
stage4_unit1_relu1 (Activation) (None, 16, 40, 256)  0           stage4_unit1_bn1[0][0]           
__________________________________________________________________________________________________
zero_padding2d_165 (ZeroPadding (None, 18, 42, 256)  0           stage4_unit1_relu1[0][0]         
__________________________________________________________________________________________________
stage4_unit1_conv1 (Conv2D)     (None, 8, 20, 512)   1179648     zero_padding2d_165[0][0]         
__________________________________________________________________________________________________
stage4_unit1_bn2 (BatchNormaliz (None, 8, 20, 512)   2048        stage4_unit1_conv1[0][0]         
__________________________________________________________________________________________________
stage4_unit1_relu2 (Activation) (None, 8, 20, 512)   0           stage4_unit1_bn2[0][0]           
__________________________________________________________________________________________________
zero_padding2d_166 (ZeroPadding (None, 10, 22, 512)  0           stage4_unit1_relu2[0][0]         
__________________________________________________________________________________________________
stage4_unit1_conv2 (Conv2D)     (None, 8, 20, 512)   2359296     zero_padding2d_166[0][0]         
__________________________________________________________________________________________________
stage4_unit1_sc (Conv2D)        (None, 8, 20, 512)   131072      stage4_unit1_relu1[0][0]         
__________________________________________________________________________________________________
add_81 (Add)                    (None, 8, 20, 512)   0           stage4_unit1_conv2[0][0]         
                                                                 stage4_unit1_sc[0][0]            
__________________________________________________________________________________________________
stage4_unit2_bn1 (BatchNormaliz (None, 8, 20, 512)   2048        add_81[0][0]                     
__________________________________________________________________________________________________
stage4_unit2_relu1 (Activation) (None, 8, 20, 512)   0           stage4_unit2_bn1[0][0]           
__________________________________________________________________________________________________
zero_padding2d_167 (ZeroPadding (None, 10, 22, 512)  0           stage4_unit2_relu1[0][0]         
__________________________________________________________________________________________________
stage4_unit2_conv1 (Conv2D)     (None, 8, 20, 512)   2359296     zero_padding2d_167[0][0]         
__________________________________________________________________________________________________
stage4_unit2_bn2 (BatchNormaliz (None, 8, 20, 512)   2048        stage4_unit2_conv1[0][0]         
__________________________________________________________________________________________________
stage4_unit2_relu2 (Activation) (None, 8, 20, 512)   0           stage4_unit2_bn2[0][0]           
__________________________________________________________________________________________________
zero_padding2d_168 (ZeroPadding (None, 10, 22, 512)  0           stage4_unit2_relu2[0][0]         
__________________________________________________________________________________________________
stage4_unit2_conv2 (Conv2D)     (None, 8, 20, 512)   2359296     zero_padding2d_168[0][0]         
__________________________________________________________________________________________________
add_82 (Add)                    (None, 8, 20, 512)   0           stage4_unit2_conv2[0][0]         
                                                                 add_81[0][0]                     
__________________________________________________________________________________________________
stage4_unit3_bn1 (BatchNormaliz (None, 8, 20, 512)   2048        add_82[0][0]                     
__________________________________________________________________________________________________
stage4_unit3_relu1 (Activation) (None, 8, 20, 512)   0           stage4_unit3_bn1[0][0]           
__________________________________________________________________________________________________
zero_padding2d_169 (ZeroPadding (None, 10, 22, 512)  0           stage4_unit3_relu1[0][0]         
__________________________________________________________________________________________________
stage4_unit3_conv1 (Conv2D)     (None, 8, 20, 512)   2359296     zero_padding2d_169[0][0]         
__________________________________________________________________________________________________
stage4_unit3_bn2 (BatchNormaliz (None, 8, 20, 512)   2048        stage4_unit3_conv1[0][0]         
__________________________________________________________________________________________________
stage4_unit3_relu2 (Activation) (None, 8, 20, 512)   0           stage4_unit3_bn2[0][0]           
__________________________________________________________________________________________________
zero_padding2d_170 (ZeroPadding (None, 10, 22, 512)  0           stage4_unit3_relu2[0][0]         
__________________________________________________________________________________________________
stage4_unit3_conv2 (Conv2D)     (None, 8, 20, 512)   2359296     zero_padding2d_170[0][0]         
__________________________________________________________________________________________________
add_83 (Add)                    (None, 8, 20, 512)   0           stage4_unit3_conv2[0][0]         
                                                                 add_82[0][0]                     
__________________________________________________________________________________________________
bn1 (BatchNormalization)        (None, 8, 20, 512)   2048        add_83[0][0]                     
__________________________________________________________________________________________________
relu1 (Activation)              (None, 8, 20, 512)   0           bn1[0][0]                        
__________________________________________________________________________________________________
decoder_stage0_upsample (UpSamp (None, 16, 40, 512)  0           relu1[0][0]                      
__________________________________________________________________________________________________
concatenate_10 (Concatenate)    (None, 16, 40, 768)  0           decoder_stage0_upsample[0][0]    
                                                                 stage4_unit1_relu1[0][0]         
__________________________________________________________________________________________________
decoder_stage0_conv1 (Conv2D)   (None, 16, 40, 256)  1769472     concatenate_10[0][0]             
__________________________________________________________________________________________________
decoder_stage0_bn1 (BatchNormal (None, 16, 40, 256)  1024        decoder_stage0_conv1[0][0]       
__________________________________________________________________________________________________
decoder_stage0_relu1 (Activatio (None, 16, 40, 256)  0           decoder_stage0_bn1[0][0]         
__________________________________________________________________________________________________
decoder_stage0_conv2 (Conv2D)   (None, 16, 40, 256)  589824      decoder_stage0_relu1[0][0]       
__________________________________________________________________________________________________
decoder_stage0_bn2 (BatchNormal (None, 16, 40, 256)  1024        decoder_stage0_conv2[0][0]       
__________________________________________________________________________________________________
decoder_stage0_relu2 (Activatio (None, 16, 40, 256)  0           decoder_stage0_bn2[0][0]         
__________________________________________________________________________________________________
decoder_stage1_upsample (UpSamp (None, 32, 80, 256)  0           decoder_stage0_relu2[0][0]       
__________________________________________________________________________________________________
concatenate_11 (Concatenate)    (None, 32, 80, 384)  0           decoder_stage1_upsample[0][0]    
                                                                 stage3_unit1_relu1[0][0]         
__________________________________________________________________________________________________
decoder_stage1_conv1 (Conv2D)   (None, 32, 80, 128)  442368      concatenate_11[0][0]             
__________________________________________________________________________________________________
decoder_stage1_bn1 (BatchNormal (None, 32, 80, 128)  512         decoder_stage1_conv1[0][0]       
__________________________________________________________________________________________________
decoder_stage1_relu1 (Activatio (None, 32, 80, 128)  0           decoder_stage1_bn1[0][0]         
__________________________________________________________________________________________________
decoder_stage1_conv2 (Conv2D)   (None, 32, 80, 128)  147456      decoder_stage1_relu1[0][0]       
__________________________________________________________________________________________________
decoder_stage1_bn2 (BatchNormal (None, 32, 80, 128)  512         decoder_stage1_conv2[0][0]       
__________________________________________________________________________________________________
decoder_stage1_relu2 (Activatio (None, 32, 80, 128)  0           decoder_stage1_bn2[0][0]         
__________________________________________________________________________________________________
decoder_stage2_upsample (UpSamp (None, 64, 160, 128) 0           decoder_stage1_relu2[0][0]       
__________________________________________________________________________________________________
concatenate_12 (Concatenate)    (None, 64, 160, 192) 0           decoder_stage2_upsample[0][0]    
                                                                 stage2_unit1_relu1[0][0]         
__________________________________________________________________________________________________
decoder_stage2_conv1 (Conv2D)   (None, 64, 160, 64)  110592      concatenate_12[0][0]             
__________________________________________________________________________________________________
decoder_stage2_bn1 (BatchNormal (None, 64, 160, 64)  256         decoder_stage2_conv1[0][0]       
__________________________________________________________________________________________________
decoder_stage2_relu1 (Activatio (None, 64, 160, 64)  0           decoder_stage2_bn1[0][0]         
__________________________________________________________________________________________________
decoder_stage2_conv2 (Conv2D)   (None, 64, 160, 64)  36864       decoder_stage2_relu1[0][0]       
__________________________________________________________________________________________________
decoder_stage2_bn2 (BatchNormal (None, 64, 160, 64)  256         decoder_stage2_conv2[0][0]       
__________________________________________________________________________________________________
decoder_stage2_relu2 (Activatio (None, 64, 160, 64)  0           decoder_stage2_bn2[0][0]         
__________________________________________________________________________________________________
decoder_stage3_upsample (UpSamp (None, 128, 320, 64) 0           decoder_stage2_relu2[0][0]       
__________________________________________________________________________________________________
concatenate_13 (Concatenate)    (None, 128, 320, 128 0           decoder_stage3_upsample[0][0]    
                                                                 relu0[0][0]                      
__________________________________________________________________________________________________
decoder_stage3_conv1 (Conv2D)   (None, 128, 320, 32) 36864       concatenate_13[0][0]             
__________________________________________________________________________________________________
decoder_stage3_bn1 (BatchNormal (None, 128, 320, 32) 128         decoder_stage3_conv1[0][0]       
__________________________________________________________________________________________________
decoder_stage3_relu1 (Activatio (None, 128, 320, 32) 0           decoder_stage3_bn1[0][0]         
__________________________________________________________________________________________________
decoder_stage3_conv2 (Conv2D)   (None, 128, 320, 32) 9216        decoder_stage3_relu1[0][0]       
__________________________________________________________________________________________________
decoder_stage3_bn2 (BatchNormal (None, 128, 320, 32) 128         decoder_stage3_conv2[0][0]       
__________________________________________________________________________________________________
decoder_stage3_relu2 (Activatio (None, 128, 320, 32) 0           decoder_stage3_bn2[0][0]         
__________________________________________________________________________________________________
decoder_stage4_upsample (UpSamp (None, 256, 640, 32) 0           decoder_stage3_relu2[0][0]       
__________________________________________________________________________________________________
decoder_stage4_conv1 (Conv2D)   (None, 256, 640, 16) 4608        decoder_stage4_upsample[0][0]    
__________________________________________________________________________________________________
decoder_stage4_bn1 (BatchNormal (None, 256, 640, 16) 64          decoder_stage4_conv1[0][0]       
__________________________________________________________________________________________________
decoder_stage4_relu1 (Activatio (None, 256, 640, 16) 0           decoder_stage4_bn1[0][0]         
__________________________________________________________________________________________________
decoder_stage4_conv2 (Conv2D)   (None, 256, 640, 16) 2304        decoder_stage4_relu1[0][0]       
__________________________________________________________________________________________________
decoder_stage4_bn2 (BatchNormal (None, 256, 640, 16) 64          decoder_stage4_conv2[0][0]       
__________________________________________________________________________________________________
decoder_stage4_relu2 (Activatio (None, 256, 640, 16) 0           decoder_stage4_bn2[0][0]         
__________________________________________________________________________________________________
final_conv (Conv2D)             (None, 256, 640, 1)  145         decoder_stage4_relu2[0][0]       
__________________________________________________________________________________________________
sigmoid (Activation)            (None, 256, 640, 1)  0           final_conv[0][0]                 
==================================================================================================
Total params: 24,456,154
Trainable params: 24,438,804
Non-trainable params: 17,350
__________________________________________________________________________________________________
Model summary:
__________________________________________________________________________________________________
Layer (type)                    Output Shape         Param #     Connected to                     
==================================================================================================
data (InputLayer)               (None, 256, 640, 3)  0                                            
__________________________________________________________________________________________________
bn_data (BatchNormalization)    (None, 256, 640, 3)  9           data[0][0]                       
__________________________________________________________________________________________________
zero_padding2d_171 (ZeroPadding (None, 262, 646, 3)  0           bn_data[0][0]                    
__________________________________________________________________________________________________
conv0 (Conv2D)                  (None, 128, 320, 64) 9408        zero_padding2d_171[0][0]         
__________________________________________________________________________________________________
bn0 (BatchNormalization)        (None, 128, 320, 64) 256         conv0[0][0]                      
__________________________________________________________________________________________________
relu0 (Activation)              (None, 128, 320, 64) 0           bn0[0][0]                        
__________________________________________________________________________________________________
zero_padding2d_172 (ZeroPadding (None, 130, 322, 64) 0           relu0[0][0]                      
__________________________________________________________________________________________________
pooling0 (MaxPooling2D)         (None, 64, 160, 64)  0           zero_padding2d_172[0][0]         
__________________________________________________________________________________________________
stage1_unit1_bn1 (BatchNormaliz (None, 64, 160, 64)  256         pooling0[0][0]                   
__________________________________________________________________________________________________
stage1_unit1_relu1 (Activation) (None, 64, 160, 64)  0           stage1_unit1_bn1[0][0]           
__________________________________________________________________________________________________
zero_padding2d_173 (ZeroPadding (None, 66, 162, 64)  0           stage1_unit1_relu1[0][0]         
__________________________________________________________________________________________________
stage1_unit1_conv1 (Conv2D)     (None, 64, 160, 64)  36864       zero_padding2d_173[0][0]         
__________________________________________________________________________________________________
stage1_unit1_bn2 (BatchNormaliz (None, 64, 160, 64)  256         stage1_unit1_conv1[0][0]         
__________________________________________________________________________________________________
stage1_unit1_relu2 (Activation) (None, 64, 160, 64)  0           stage1_unit1_bn2[0][0]           
__________________________________________________________________________________________________
zero_padding2d_174 (ZeroPadding (None, 66, 162, 64)  0           stage1_unit1_relu2[0][0]         
__________________________________________________________________________________________________
stage1_unit1_conv2 (Conv2D)     (None, 64, 160, 64)  36864       zero_padding2d_174[0][0]         
__________________________________________________________________________________________________
stage1_unit1_sc (Conv2D)        (None, 64, 160, 64)  4096        stage1_unit1_relu1[0][0]         
__________________________________________________________________________________________________
add_84 (Add)                    (None, 64, 160, 64)  0           stage1_unit1_conv2[0][0]         
                                                                 stage1_unit1_sc[0][0]            
__________________________________________________________________________________________________
stage1_unit2_bn1 (BatchNormaliz (None, 64, 160, 64)  256         add_84[0][0]                     
__________________________________________________________________________________________________
stage1_unit2_relu1 (Activation) (None, 64, 160, 64)  0           stage1_unit2_bn1[0][0]           
__________________________________________________________________________________________________
zero_padding2d_175 (ZeroPadding (None, 66, 162, 64)  0           stage1_unit2_relu1[0][0]         
__________________________________________________________________________________________________
stage1_unit2_conv1 (Conv2D)     (None, 64, 160, 64)  36864       zero_padding2d_175[0][0]         
__________________________________________________________________________________________________
stage1_unit2_bn2 (BatchNormaliz (None, 64, 160, 64)  256         stage1_unit2_conv1[0][0]         
__________________________________________________________________________________________________
stage1_unit2_relu2 (Activation) (None, 64, 160, 64)  0           stage1_unit2_bn2[0][0]           
__________________________________________________________________________________________________
zero_padding2d_176 (ZeroPadding (None, 66, 162, 64)  0           stage1_unit2_relu2[0][0]         
__________________________________________________________________________________________________
stage1_unit2_conv2 (Conv2D)     (None, 64, 160, 64)  36864       zero_padding2d_176[0][0]         
__________________________________________________________________________________________________
add_85 (Add)                    (None, 64, 160, 64)  0           stage1_unit2_conv2[0][0]         
                                                                 add_84[0][0]                     
__________________________________________________________________________________________________
stage1_unit3_bn1 (BatchNormaliz (None, 64, 160, 64)  256         add_85[0][0]                     
__________________________________________________________________________________________________
stage1_unit3_relu1 (Activation) (None, 64, 160, 64)  0           stage1_unit3_bn1[0][0]           
__________________________________________________________________________________________________
zero_padding2d_177 (ZeroPadding (None, 66, 162, 64)  0           stage1_unit3_relu1[0][0]         
__________________________________________________________________________________________________
stage1_unit3_conv1 (Conv2D)     (None, 64, 160, 64)  36864       zero_padding2d_177[0][0]         
__________________________________________________________________________________________________
stage1_unit3_bn2 (BatchNormaliz (None, 64, 160, 64)  256         stage1_unit3_conv1[0][0]         
__________________________________________________________________________________________________
stage1_unit3_relu2 (Activation) (None, 64, 160, 64)  0           stage1_unit3_bn2[0][0]           
__________________________________________________________________________________________________
zero_padding2d_178 (ZeroPadding (None, 66, 162, 64)  0           stage1_unit3_relu2[0][0]         
__________________________________________________________________________________________________
stage1_unit3_conv2 (Conv2D)     (None, 64, 160, 64)  36864       zero_padding2d_178[0][0]         
__________________________________________________________________________________________________
add_86 (Add)                    (None, 64, 160, 64)  0           stage1_unit3_conv2[0][0]         
                                                                 add_85[0][0]                     
__________________________________________________________________________________________________
stage2_unit1_bn1 (BatchNormaliz (None, 64, 160, 64)  256         add_86[0][0]                     
__________________________________________________________________________________________________
stage2_unit1_relu1 (Activation) (None, 64, 160, 64)  0           stage2_unit1_bn1[0][0]           
__________________________________________________________________________________________________
zero_padding2d_179 (ZeroPadding (None, 66, 162, 64)  0           stage2_unit1_relu1[0][0]         
__________________________________________________________________________________________________
stage2_unit1_conv1 (Conv2D)     (None, 32, 80, 128)  73728       zero_padding2d_179[0][0]         
__________________________________________________________________________________________________
stage2_unit1_bn2 (BatchNormaliz (None, 32, 80, 128)  512         stage2_unit1_conv1[0][0]         
__________________________________________________________________________________________________
stage2_unit1_relu2 (Activation) (None, 32, 80, 128)  0           stage2_unit1_bn2[0][0]           
__________________________________________________________________________________________________
zero_padding2d_180 (ZeroPadding (None, 34, 82, 128)  0           stage2_unit1_relu2[0][0]         
__________________________________________________________________________________________________
stage2_unit1_conv2 (Conv2D)     (None, 32, 80, 128)  147456      zero_padding2d_180[0][0]         
__________________________________________________________________________________________________
stage2_unit1_sc (Conv2D)        (None, 32, 80, 128)  8192        stage2_unit1_relu1[0][0]         
__________________________________________________________________________________________________
add_87 (Add)                    (None, 32, 80, 128)  0           stage2_unit1_conv2[0][0]         
                                                                 stage2_unit1_sc[0][0]            
__________________________________________________________________________________________________
stage2_unit2_bn1 (BatchNormaliz (None, 32, 80, 128)  512         add_87[0][0]                     
__________________________________________________________________________________________________
stage2_unit2_relu1 (Activation) (None, 32, 80, 128)  0           stage2_unit2_bn1[0][0]           
__________________________________________________________________________________________________
zero_padding2d_181 (ZeroPadding (None, 34, 82, 128)  0           stage2_unit2_relu1[0][0]         
__________________________________________________________________________________________________
stage2_unit2_conv1 (Conv2D)     (None, 32, 80, 128)  147456      zero_padding2d_181[0][0]         
__________________________________________________________________________________________________
stage2_unit2_bn2 (BatchNormaliz (None, 32, 80, 128)  512         stage2_unit2_conv1[0][0]         
__________________________________________________________________________________________________
stage2_unit2_relu2 (Activation) (None, 32, 80, 128)  0           stage2_unit2_bn2[0][0]           
__________________________________________________________________________________________________
zero_padding2d_182 (ZeroPadding (None, 34, 82, 128)  0           stage2_unit2_relu2[0][0]         
__________________________________________________________________________________________________
stage2_unit2_conv2 (Conv2D)     (None, 32, 80, 128)  147456      zero_padding2d_182[0][0]         
__________________________________________________________________________________________________
add_88 (Add)                    (None, 32, 80, 128)  0           stage2_unit2_conv2[0][0]         
                                                                 add_87[0][0]                     
__________________________________________________________________________________________________
stage2_unit3_bn1 (BatchNormaliz (None, 32, 80, 128)  512         add_88[0][0]                     
__________________________________________________________________________________________________
stage2_unit3_relu1 (Activation) (None, 32, 80, 128)  0           stage2_unit3_bn1[0][0]           
__________________________________________________________________________________________________
zero_padding2d_183 (ZeroPadding (None, 34, 82, 128)  0           stage2_unit3_relu1[0][0]         
__________________________________________________________________________________________________
stage2_unit3_conv1 (Conv2D)     (None, 32, 80, 128)  147456      zero_padding2d_183[0][0]         
__________________________________________________________________________________________________
stage2_unit3_bn2 (BatchNormaliz (None, 32, 80, 128)  512         stage2_unit3_conv1[0][0]         
__________________________________________________________________________________________________
stage2_unit3_relu2 (Activation) (None, 32, 80, 128)  0           stage2_unit3_bn2[0][0]           
__________________________________________________________________________________________________
zero_padding2d_184 (ZeroPadding (None, 34, 82, 128)  0           stage2_unit3_relu2[0][0]         
__________________________________________________________________________________________________
stage2_unit3_conv2 (Conv2D)     (None, 32, 80, 128)  147456      zero_padding2d_184[0][0]         
__________________________________________________________________________________________________
add_89 (Add)                    (None, 32, 80, 128)  0           stage2_unit3_conv2[0][0]         
                                                                 add_88[0][0]                     
__________________________________________________________________________________________________
stage2_unit4_bn1 (BatchNormaliz (None, 32, 80, 128)  512         add_89[0][0]                     
__________________________________________________________________________________________________
stage2_unit4_relu1 (Activation) (None, 32, 80, 128)  0           stage2_unit4_bn1[0][0]           
__________________________________________________________________________________________________
zero_padding2d_185 (ZeroPadding (None, 34, 82, 128)  0           stage2_unit4_relu1[0][0]         
__________________________________________________________________________________________________
stage2_unit4_conv1 (Conv2D)     (None, 32, 80, 128)  147456      zero_padding2d_185[0][0]         
__________________________________________________________________________________________________
stage2_unit4_bn2 (BatchNormaliz (None, 32, 80, 128)  512         stage2_unit4_conv1[0][0]         
__________________________________________________________________________________________________
stage2_unit4_relu2 (Activation) (None, 32, 80, 128)  0           stage2_unit4_bn2[0][0]           
__________________________________________________________________________________________________
zero_padding2d_186 (ZeroPadding (None, 34, 82, 128)  0           stage2_unit4_relu2[0][0]         
__________________________________________________________________________________________________
stage2_unit4_conv2 (Conv2D)     (None, 32, 80, 128)  147456      zero_padding2d_186[0][0]         
__________________________________________________________________________________________________
add_90 (Add)                    (None, 32, 80, 128)  0           stage2_unit4_conv2[0][0]         
                                                                 add_89[0][0]                     
__________________________________________________________________________________________________
stage3_unit1_bn1 (BatchNormaliz (None, 32, 80, 128)  512         add_90[0][0]                     
__________________________________________________________________________________________________
stage3_unit1_relu1 (Activation) (None, 32, 80, 128)  0           stage3_unit1_bn1[0][0]           
__________________________________________________________________________________________________
zero_padding2d_187 (ZeroPadding (None, 34, 82, 128)  0           stage3_unit1_relu1[0][0]         
__________________________________________________________________________________________________
stage3_unit1_conv1 (Conv2D)     (None, 16, 40, 256)  294912      zero_padding2d_187[0][0]         
__________________________________________________________________________________________________
stage3_unit1_bn2 (BatchNormaliz (None, 16, 40, 256)  1024        stage3_unit1_conv1[0][0]         
__________________________________________________________________________________________________
stage3_unit1_relu2 (Activation) (None, 16, 40, 256)  0           stage3_unit1_bn2[0][0]           
__________________________________________________________________________________________________
zero_padding2d_188 (ZeroPadding (None, 18, 42, 256)  0           stage3_unit1_relu2[0][0]         
__________________________________________________________________________________________________
stage3_unit1_conv2 (Conv2D)     (None, 16, 40, 256)  589824      zero_padding2d_188[0][0]         
__________________________________________________________________________________________________
stage3_unit1_sc (Conv2D)        (None, 16, 40, 256)  32768       stage3_unit1_relu1[0][0]         
__________________________________________________________________________________________________
add_91 (Add)                    (None, 16, 40, 256)  0           stage3_unit1_conv2[0][0]         
                                                                 stage3_unit1_sc[0][0]            
__________________________________________________________________________________________________
stage3_unit2_bn1 (BatchNormaliz (None, 16, 40, 256)  1024        add_91[0][0]                     
__________________________________________________________________________________________________
stage3_unit2_relu1 (Activation) (None, 16, 40, 256)  0           stage3_unit2_bn1[0][0]           
__________________________________________________________________________________________________
zero_padding2d_189 (ZeroPadding (None, 18, 42, 256)  0           stage3_unit2_relu1[0][0]         
__________________________________________________________________________________________________
stage3_unit2_conv1 (Conv2D)     (None, 16, 40, 256)  589824      zero_padding2d_189[0][0]         
__________________________________________________________________________________________________
stage3_unit2_bn2 (BatchNormaliz (None, 16, 40, 256)  1024        stage3_unit2_conv1[0][0]         
__________________________________________________________________________________________________
stage3_unit2_relu2 (Activation) (None, 16, 40, 256)  0           stage3_unit2_bn2[0][0]           
__________________________________________________________________________________________________
zero_padding2d_190 (ZeroPadding (None, 18, 42, 256)  0           stage3_unit2_relu2[0][0]         
__________________________________________________________________________________________________
stage3_unit2_conv2 (Conv2D)     (None, 16, 40, 256)  589824      zero_padding2d_190[0][0]         
__________________________________________________________________________________________________
add_92 (Add)                    (None, 16, 40, 256)  0           stage3_unit2_conv2[0][0]         
                                                                 add_91[0][0]                     
__________________________________________________________________________________________________
stage3_unit3_bn1 (BatchNormaliz (None, 16, 40, 256)  1024        add_92[0][0]                     
__________________________________________________________________________________________________
stage3_unit3_relu1 (Activation) (None, 16, 40, 256)  0           stage3_unit3_bn1[0][0]           
__________________________________________________________________________________________________
zero_padding2d_191 (ZeroPadding (None, 18, 42, 256)  0           stage3_unit3_relu1[0][0]         
__________________________________________________________________________________________________
stage3_unit3_conv1 (Conv2D)     (None, 16, 40, 256)  589824      zero_padding2d_191[0][0]         
__________________________________________________________________________________________________
stage3_unit3_bn2 (BatchNormaliz (None, 16, 40, 256)  1024        stage3_unit3_conv1[0][0]         
__________________________________________________________________________________________________
stage3_unit3_relu2 (Activation) (None, 16, 40, 256)  0           stage3_unit3_bn2[0][0]           
__________________________________________________________________________________________________
zero_padding2d_192 (ZeroPadding (None, 18, 42, 256)  0           stage3_unit3_relu2[0][0]         
__________________________________________________________________________________________________
stage3_unit3_conv2 (Conv2D)     (None, 16, 40, 256)  589824      zero_padding2d_192[0][0]         
__________________________________________________________________________________________________
add_93 (Add)                    (None, 16, 40, 256)  0           stage3_unit3_conv2[0][0]         
                                                                 add_92[0][0]                     
__________________________________________________________________________________________________
stage3_unit4_bn1 (BatchNormaliz (None, 16, 40, 256)  1024        add_93[0][0]                     
__________________________________________________________________________________________________
stage3_unit4_relu1 (Activation) (None, 16, 40, 256)  0           stage3_unit4_bn1[0][0]           
__________________________________________________________________________________________________
zero_padding2d_193 (ZeroPadding (None, 18, 42, 256)  0           stage3_unit4_relu1[0][0]         
__________________________________________________________________________________________________
stage3_unit4_conv1 (Conv2D)     (None, 16, 40, 256)  589824      zero_padding2d_193[0][0]         
__________________________________________________________________________________________________
stage3_unit4_bn2 (BatchNormaliz (None, 16, 40, 256)  1024        stage3_unit4_conv1[0][0]         
__________________________________________________________________________________________________
stage3_unit4_relu2 (Activation) (None, 16, 40, 256)  0           stage3_unit4_bn2[0][0]           
__________________________________________________________________________________________________
zero_padding2d_194 (ZeroPadding (None, 18, 42, 256)  0           stage3_unit4_relu2[0][0]         
__________________________________________________________________________________________________
stage3_unit4_conv2 (Conv2D)     (None, 16, 40, 256)  589824      zero_padding2d_194[0][0]         
__________________________________________________________________________________________________
add_94 (Add)                    (None, 16, 40, 256)  0           stage3_unit4_conv2[0][0]         
                                                                 add_93[0][0]                     
__________________________________________________________________________________________________
stage3_unit5_bn1 (BatchNormaliz (None, 16, 40, 256)  1024        add_94[0][0]                     
__________________________________________________________________________________________________
stage3_unit5_relu1 (Activation) (None, 16, 40, 256)  0           stage3_unit5_bn1[0][0]           
__________________________________________________________________________________________________
zero_padding2d_195 (ZeroPadding (None, 18, 42, 256)  0           stage3_unit5_relu1[0][0]         
__________________________________________________________________________________________________
stage3_unit5_conv1 (Conv2D)     (None, 16, 40, 256)  589824      zero_padding2d_195[0][0]         
__________________________________________________________________________________________________
stage3_unit5_bn2 (BatchNormaliz (None, 16, 40, 256)  1024        stage3_unit5_conv1[0][0]         
__________________________________________________________________________________________________
stage3_unit5_relu2 (Activation) (None, 16, 40, 256)  0           stage3_unit5_bn2[0][0]           
__________________________________________________________________________________________________
zero_padding2d_196 (ZeroPadding (None, 18, 42, 256)  0           stage3_unit5_relu2[0][0]         
__________________________________________________________________________________________________
stage3_unit5_conv2 (Conv2D)     (None, 16, 40, 256)  589824      zero_padding2d_196[0][0]         
__________________________________________________________________________________________________
add_95 (Add)                    (None, 16, 40, 256)  0           stage3_unit5_conv2[0][0]         
                                                                 add_94[0][0]                     
__________________________________________________________________________________________________
stage3_unit6_bn1 (BatchNormaliz (None, 16, 40, 256)  1024        add_95[0][0]                     
__________________________________________________________________________________________________
stage3_unit6_relu1 (Activation) (None, 16, 40, 256)  0           stage3_unit6_bn1[0][0]           
__________________________________________________________________________________________________
zero_padding2d_197 (ZeroPadding (None, 18, 42, 256)  0           stage3_unit6_relu1[0][0]         
__________________________________________________________________________________________________
stage3_unit6_conv1 (Conv2D)     (None, 16, 40, 256)  589824      zero_padding2d_197[0][0]         
__________________________________________________________________________________________________
stage3_unit6_bn2 (BatchNormaliz (None, 16, 40, 256)  1024        stage3_unit6_conv1[0][0]         
__________________________________________________________________________________________________
stage3_unit6_relu2 (Activation) (None, 16, 40, 256)  0           stage3_unit6_bn2[0][0]           
__________________________________________________________________________________________________
zero_padding2d_198 (ZeroPadding (None, 18, 42, 256)  0           stage3_unit6_relu2[0][0]         
__________________________________________________________________________________________________
stage3_unit6_conv2 (Conv2D)     (None, 16, 40, 256)  589824      zero_padding2d_198[0][0]         
__________________________________________________________________________________________________
add_96 (Add)                    (None, 16, 40, 256)  0           stage3_unit6_conv2[0][0]         
                                                                 add_95[0][0]                     
__________________________________________________________________________________________________
stage4_unit1_bn1 (BatchNormaliz (None, 16, 40, 256)  1024        add_96[0][0]                     
__________________________________________________________________________________________________
stage4_unit1_relu1 (Activation) (None, 16, 40, 256)  0           stage4_unit1_bn1[0][0]           
__________________________________________________________________________________________________
zero_padding2d_199 (ZeroPadding (None, 18, 42, 256)  0           stage4_unit1_relu1[0][0]         
__________________________________________________________________________________________________
stage4_unit1_conv1 (Conv2D)     (None, 8, 20, 512)   1179648     zero_padding2d_199[0][0]         
__________________________________________________________________________________________________
stage4_unit1_bn2 (BatchNormaliz (None, 8, 20, 512)   2048        stage4_unit1_conv1[0][0]         
__________________________________________________________________________________________________
stage4_unit1_relu2 (Activation) (None, 8, 20, 512)   0           stage4_unit1_bn2[0][0]           
__________________________________________________________________________________________________
zero_padding2d_200 (ZeroPadding (None, 10, 22, 512)  0           stage4_unit1_relu2[0][0]         
__________________________________________________________________________________________________
stage4_unit1_conv2 (Conv2D)     (None, 8, 20, 512)   2359296     zero_padding2d_200[0][0]         
__________________________________________________________________________________________________
stage4_unit1_sc (Conv2D)        (None, 8, 20, 512)   131072      stage4_unit1_relu1[0][0]         
__________________________________________________________________________________________________
add_97 (Add)                    (None, 8, 20, 512)   0           stage4_unit1_conv2[0][0]         
                                                                 stage4_unit1_sc[0][0]            
__________________________________________________________________________________________________
stage4_unit2_bn1 (BatchNormaliz (None, 8, 20, 512)   2048        add_97[0][0]                     
__________________________________________________________________________________________________
stage4_unit2_relu1 (Activation) (None, 8, 20, 512)   0           stage4_unit2_bn1[0][0]           
__________________________________________________________________________________________________
zero_padding2d_201 (ZeroPadding (None, 10, 22, 512)  0           stage4_unit2_relu1[0][0]         
__________________________________________________________________________________________________
stage4_unit2_conv1 (Conv2D)     (None, 8, 20, 512)   2359296     zero_padding2d_201[0][0]         
__________________________________________________________________________________________________
stage4_unit2_bn2 (BatchNormaliz (None, 8, 20, 512)   2048        stage4_unit2_conv1[0][0]         
__________________________________________________________________________________________________
stage4_unit2_relu2 (Activation) (None, 8, 20, 512)   0           stage4_unit2_bn2[0][0]           
__________________________________________________________________________________________________
zero_padding2d_202 (ZeroPadding (None, 10, 22, 512)  0           stage4_unit2_relu2[0][0]         
__________________________________________________________________________________________________
stage4_unit2_conv2 (Conv2D)     (None, 8, 20, 512)   2359296     zero_padding2d_202[0][0]         
__________________________________________________________________________________________________
add_98 (Add)                    (None, 8, 20, 512)   0           stage4_unit2_conv2[0][0]         
                                                                 add_97[0][0]                     
__________________________________________________________________________________________________
stage4_unit3_bn1 (BatchNormaliz (None, 8, 20, 512)   2048        add_98[0][0]                     
__________________________________________________________________________________________________
stage4_unit3_relu1 (Activation) (None, 8, 20, 512)   0           stage4_unit3_bn1[0][0]           
__________________________________________________________________________________________________
zero_padding2d_203 (ZeroPadding (None, 10, 22, 512)  0           stage4_unit3_relu1[0][0]         
__________________________________________________________________________________________________
stage4_unit3_conv1 (Conv2D)     (None, 8, 20, 512)   2359296     zero_padding2d_203[0][0]         
__________________________________________________________________________________________________
stage4_unit3_bn2 (BatchNormaliz (None, 8, 20, 512)   2048        stage4_unit3_conv1[0][0]         
__________________________________________________________________________________________________
stage4_unit3_relu2 (Activation) (None, 8, 20, 512)   0           stage4_unit3_bn2[0][0]           
__________________________________________________________________________________________________
zero_padding2d_204 (ZeroPadding (None, 10, 22, 512)  0           stage4_unit3_relu2[0][0]         
__________________________________________________________________________________________________
stage4_unit3_conv2 (Conv2D)     (None, 8, 20, 512)   2359296     zero_padding2d_204[0][0]         
__________________________________________________________________________________________________
add_99 (Add)                    (None, 8, 20, 512)   0           stage4_unit3_conv2[0][0]         
                                                                 add_98[0][0]                     
__________________________________________________________________________________________________
bn1 (BatchNormalization)        (None, 8, 20, 512)   2048        add_99[0][0]                     
__________________________________________________________________________________________________
relu1 (Activation)              (None, 8, 20, 512)   0           bn1[0][0]                        
__________________________________________________________________________________________________
decoder_stage0_upsample (UpSamp (None, 16, 40, 512)  0           relu1[0][0]                      
__________________________________________________________________________________________________
concatenate_14 (Concatenate)    (None, 16, 40, 768)  0           decoder_stage0_upsample[0][0]    
                                                                 stage4_unit1_relu1[0][0]         
__________________________________________________________________________________________________
decoder_stage0_conv1 (Conv2D)   (None, 16, 40, 256)  1769472     concatenate_14[0][0]             
__________________________________________________________________________________________________
decoder_stage0_bn1 (BatchNormal (None, 16, 40, 256)  1024        decoder_stage0_conv1[0][0]       
__________________________________________________________________________________________________
decoder_stage0_relu1 (Activatio (None, 16, 40, 256)  0           decoder_stage0_bn1[0][0]         
__________________________________________________________________________________________________
decoder_stage0_conv2 (Conv2D)   (None, 16, 40, 256)  589824      decoder_stage0_relu1[0][0]       
__________________________________________________________________________________________________
decoder_stage0_bn2 (BatchNormal (None, 16, 40, 256)  1024        decoder_stage0_conv2[0][0]       
__________________________________________________________________________________________________
decoder_stage0_relu2 (Activatio (None, 16, 40, 256)  0           decoder_stage0_bn2[0][0]         
__________________________________________________________________________________________________
decoder_stage1_upsample (UpSamp (None, 32, 80, 256)  0           decoder_stage0_relu2[0][0]       
__________________________________________________________________________________________________
concatenate_15 (Concatenate)    (None, 32, 80, 384)  0           decoder_stage1_upsample[0][0]    
                                                                 stage3_unit1_relu1[0][0]         
__________________________________________________________________________________________________
decoder_stage1_conv1 (Conv2D)   (None, 32, 80, 128)  442368      concatenate_15[0][0]             
__________________________________________________________________________________________________
decoder_stage1_bn1 (BatchNormal (None, 32, 80, 128)  512         decoder_stage1_conv1[0][0]       
__________________________________________________________________________________________________
decoder_stage1_relu1 (Activatio (None, 32, 80, 128)  0           decoder_stage1_bn1[0][0]         
__________________________________________________________________________________________________
decoder_stage1_conv2 (Conv2D)   (None, 32, 80, 128)  147456      decoder_stage1_relu1[0][0]       
__________________________________________________________________________________________________
decoder_stage1_bn2 (BatchNormal (None, 32, 80, 128)  512         decoder_stage1_conv2[0][0]       
__________________________________________________________________________________________________
decoder_stage1_relu2 (Activatio (None, 32, 80, 128)  0           decoder_stage1_bn2[0][0]         
__________________________________________________________________________________________________
decoder_stage2_upsample (UpSamp (None, 64, 160, 128) 0           decoder_stage1_relu2[0][0]       
__________________________________________________________________________________________________
concatenate_16 (Concatenate)    (None, 64, 160, 192) 0           decoder_stage2_upsample[0][0]    
                                                                 stage2_unit1_relu1[0][0]         
__________________________________________________________________________________________________
decoder_stage2_conv1 (Conv2D)   (None, 64, 160, 64)  110592      concatenate_16[0][0]             
__________________________________________________________________________________________________
decoder_stage2_bn1 (BatchNormal (None, 64, 160, 64)  256         decoder_stage2_conv1[0][0]       
__________________________________________________________________________________________________
decoder_stage2_relu1 (Activatio (None, 64, 160, 64)  0           decoder_stage2_bn1[0][0]         
__________________________________________________________________________________________________
decoder_stage2_conv2 (Conv2D)   (None, 64, 160, 64)  36864       decoder_stage2_relu1[0][0]       
__________________________________________________________________________________________________
decoder_stage2_bn2 (BatchNormal (None, 64, 160, 64)  256         decoder_stage2_conv2[0][0]       
__________________________________________________________________________________________________
decoder_stage2_relu2 (Activatio (None, 64, 160, 64)  0           decoder_stage2_bn2[0][0]         
__________________________________________________________________________________________________
decoder_stage3_upsample (UpSamp (None, 128, 320, 64) 0           decoder_stage2_relu2[0][0]       
__________________________________________________________________________________________________
concatenate_17 (Concatenate)    (None, 128, 320, 128 0           decoder_stage3_upsample[0][0]    
                                                                 relu0[0][0]                      
__________________________________________________________________________________________________
decoder_stage3_conv1 (Conv2D)   (None, 128, 320, 32) 36864       concatenate_17[0][0]             
__________________________________________________________________________________________________
decoder_stage3_bn1 (BatchNormal (None, 128, 320, 32) 128         decoder_stage3_conv1[0][0]       
__________________________________________________________________________________________________
decoder_stage3_relu1 (Activatio (None, 128, 320, 32) 0           decoder_stage3_bn1[0][0]         
__________________________________________________________________________________________________
decoder_stage3_conv2 (Conv2D)   (None, 128, 320, 32) 9216        decoder_stage3_relu1[0][0]       
__________________________________________________________________________________________________
decoder_stage3_bn2 (BatchNormal (None, 128, 320, 32) 128         decoder_stage3_conv2[0][0]       
__________________________________________________________________________________________________
decoder_stage3_relu2 (Activatio (None, 128, 320, 32) 0           decoder_stage3_bn2[0][0]         
__________________________________________________________________________________________________
decoder_stage4_upsample (UpSamp (None, 256, 640, 32) 0           decoder_stage3_relu2[0][0]       
__________________________________________________________________________________________________
decoder_stage4_conv1 (Conv2D)   (None, 256, 640, 16) 4608        decoder_stage4_upsample[0][0]    
__________________________________________________________________________________________________
decoder_stage4_bn1 (BatchNormal (None, 256, 640, 16) 64          decoder_stage4_conv1[0][0]       
__________________________________________________________________________________________________
decoder_stage4_relu1 (Activatio (None, 256, 640, 16) 0           decoder_stage4_bn1[0][0]         
__________________________________________________________________________________________________
decoder_stage4_conv2 (Conv2D)   (None, 256, 640, 16) 2304        decoder_stage4_relu1[0][0]       
__________________________________________________________________________________________________
decoder_stage4_bn2 (BatchNormal (None, 256, 640, 16) 64          decoder_stage4_conv2[0][0]       
__________________________________________________________________________________________________
decoder_stage4_relu2 (Activatio (None, 256, 640, 16) 0           decoder_stage4_bn2[0][0]         
__________________________________________________________________________________________________
final_conv (Conv2D)             (None, 256, 640, 3)  435         decoder_stage4_relu2[0][0]       
__________________________________________________________________________________________________
softmax (Activation)            (None, 256, 640, 3)  0           final_conv[0][0]                 
==================================================================================================
Total params: 24,456,444
Trainable params: 24,439,094
Non-trainable params: 17,350
__________________________________________________________________________________________________
Model summary:
__________________________________________________________________________________________________
Layer (type)                    Output Shape         Param #     Connected to                     
==================================================================================================
data (InputLayer)               (None, 256, 640, 3)  0                                            
__________________________________________________________________________________________________
bn_data (BatchNormalization)    (None, 256, 640, 3)  9           data[0][0]                       
__________________________________________________________________________________________________
zero_padding2d_239 (ZeroPadding (None, 262, 646, 3)  0           bn_data[0][0]                    
__________________________________________________________________________________________________
conv0 (Conv2D)                  (None, 128, 320, 64) 9408        zero_padding2d_239[0][0]         
__________________________________________________________________________________________________
bn0 (BatchNormalization)        (None, 128, 320, 64) 256         conv0[0][0]                      
__________________________________________________________________________________________________
relu0 (Activation)              (None, 128, 320, 64) 0           bn0[0][0]                        
__________________________________________________________________________________________________
zero_padding2d_240 (ZeroPadding (None, 130, 322, 64) 0           relu0[0][0]                      
__________________________________________________________________________________________________
pooling0 (MaxPooling2D)         (None, 64, 160, 64)  0           zero_padding2d_240[0][0]         
__________________________________________________________________________________________________
stage1_unit1_bn1 (BatchNormaliz (None, 64, 160, 64)  256         pooling0[0][0]                   
__________________________________________________________________________________________________
stage1_unit1_relu1 (Activation) (None, 64, 160, 64)  0           stage1_unit1_bn1[0][0]           
__________________________________________________________________________________________________
zero_padding2d_241 (ZeroPadding (None, 66, 162, 64)  0           stage1_unit1_relu1[0][0]         
__________________________________________________________________________________________________
stage1_unit1_conv1 (Conv2D)     (None, 64, 160, 64)  36864       zero_padding2d_241[0][0]         
__________________________________________________________________________________________________
stage1_unit1_bn2 (BatchNormaliz (None, 64, 160, 64)  256         stage1_unit1_conv1[0][0]         
__________________________________________________________________________________________________
stage1_unit1_relu2 (Activation) (None, 64, 160, 64)  0           stage1_unit1_bn2[0][0]           
__________________________________________________________________________________________________
zero_padding2d_242 (ZeroPadding (None, 66, 162, 64)  0           stage1_unit1_relu2[0][0]         
__________________________________________________________________________________________________
stage1_unit1_conv2 (Conv2D)     (None, 64, 160, 64)  36864       zero_padding2d_242[0][0]         
__________________________________________________________________________________________________
stage1_unit1_sc (Conv2D)        (None, 64, 160, 64)  4096        stage1_unit1_relu1[0][0]         
__________________________________________________________________________________________________
add_116 (Add)                   (None, 64, 160, 64)  0           stage1_unit1_conv2[0][0]         
                                                                 stage1_unit1_sc[0][0]            
__________________________________________________________________________________________________
stage1_unit2_bn1 (BatchNormaliz (None, 64, 160, 64)  256         add_116[0][0]                    
__________________________________________________________________________________________________
stage1_unit2_relu1 (Activation) (None, 64, 160, 64)  0           stage1_unit2_bn1[0][0]           
__________________________________________________________________________________________________
zero_padding2d_243 (ZeroPadding (None, 66, 162, 64)  0           stage1_unit2_relu1[0][0]         
__________________________________________________________________________________________________
stage1_unit2_conv1 (Conv2D)     (None, 64, 160, 64)  36864       zero_padding2d_243[0][0]         
__________________________________________________________________________________________________
stage1_unit2_bn2 (BatchNormaliz (None, 64, 160, 64)  256         stage1_unit2_conv1[0][0]         
__________________________________________________________________________________________________
stage1_unit2_relu2 (Activation) (None, 64, 160, 64)  0           stage1_unit2_bn2[0][0]           
__________________________________________________________________________________________________
zero_padding2d_244 (ZeroPadding (None, 66, 162, 64)  0           stage1_unit2_relu2[0][0]         
__________________________________________________________________________________________________
stage1_unit2_conv2 (Conv2D)     (None, 64, 160, 64)  36864       zero_padding2d_244[0][0]         
__________________________________________________________________________________________________
add_117 (Add)                   (None, 64, 160, 64)  0           stage1_unit2_conv2[0][0]         
                                                                 add_116[0][0]                    
__________________________________________________________________________________________________
stage1_unit3_bn1 (BatchNormaliz (None, 64, 160, 64)  256         add_117[0][0]                    
__________________________________________________________________________________________________
stage1_unit3_relu1 (Activation) (None, 64, 160, 64)  0           stage1_unit3_bn1[0][0]           
__________________________________________________________________________________________________
zero_padding2d_245 (ZeroPadding (None, 66, 162, 64)  0           stage1_unit3_relu1[0][0]         
__________________________________________________________________________________________________
stage1_unit3_conv1 (Conv2D)     (None, 64, 160, 64)  36864       zero_padding2d_245[0][0]         
__________________________________________________________________________________________________
stage1_unit3_bn2 (BatchNormaliz (None, 64, 160, 64)  256         stage1_unit3_conv1[0][0]         
__________________________________________________________________________________________________
stage1_unit3_relu2 (Activation) (None, 64, 160, 64)  0           stage1_unit3_bn2[0][0]           
__________________________________________________________________________________________________
zero_padding2d_246 (ZeroPadding (None, 66, 162, 64)  0           stage1_unit3_relu2[0][0]         
__________________________________________________________________________________________________
stage1_unit3_conv2 (Conv2D)     (None, 64, 160, 64)  36864       zero_padding2d_246[0][0]         
__________________________________________________________________________________________________
add_118 (Add)                   (None, 64, 160, 64)  0           stage1_unit3_conv2[0][0]         
                                                                 add_117[0][0]                    
__________________________________________________________________________________________________
stage2_unit1_bn1 (BatchNormaliz (None, 64, 160, 64)  256         add_118[0][0]                    
__________________________________________________________________________________________________
stage2_unit1_relu1 (Activation) (None, 64, 160, 64)  0           stage2_unit1_bn1[0][0]           
__________________________________________________________________________________________________
zero_padding2d_247 (ZeroPadding (None, 66, 162, 64)  0           stage2_unit1_relu1[0][0]         
__________________________________________________________________________________________________
stage2_unit1_conv1 (Conv2D)     (None, 32, 80, 128)  73728       zero_padding2d_247[0][0]         
__________________________________________________________________________________________________
stage2_unit1_bn2 (BatchNormaliz (None, 32, 80, 128)  512         stage2_unit1_conv1[0][0]         
__________________________________________________________________________________________________
stage2_unit1_relu2 (Activation) (None, 32, 80, 128)  0           stage2_unit1_bn2[0][0]           
__________________________________________________________________________________________________
zero_padding2d_248 (ZeroPadding (None, 34, 82, 128)  0           stage2_unit1_relu2[0][0]         
__________________________________________________________________________________________________
stage2_unit1_conv2 (Conv2D)     (None, 32, 80, 128)  147456      zero_padding2d_248[0][0]         
__________________________________________________________________________________________________
stage2_unit1_sc (Conv2D)        (None, 32, 80, 128)  8192        stage2_unit1_relu1[0][0]         
__________________________________________________________________________________________________
add_119 (Add)                   (None, 32, 80, 128)  0           stage2_unit1_conv2[0][0]         
                                                                 stage2_unit1_sc[0][0]            
__________________________________________________________________________________________________
stage2_unit2_bn1 (BatchNormaliz (None, 32, 80, 128)  512         add_119[0][0]                    
__________________________________________________________________________________________________
stage2_unit2_relu1 (Activation) (None, 32, 80, 128)  0           stage2_unit2_bn1[0][0]           
__________________________________________________________________________________________________
zero_padding2d_249 (ZeroPadding (None, 34, 82, 128)  0           stage2_unit2_relu1[0][0]         
__________________________________________________________________________________________________
stage2_unit2_conv1 (Conv2D)     (None, 32, 80, 128)  147456      zero_padding2d_249[0][0]         
__________________________________________________________________________________________________
stage2_unit2_bn2 (BatchNormaliz (None, 32, 80, 128)  512         stage2_unit2_conv1[0][0]         
__________________________________________________________________________________________________
stage2_unit2_relu2 (Activation) (None, 32, 80, 128)  0           stage2_unit2_bn2[0][0]           
__________________________________________________________________________________________________
zero_padding2d_250 (ZeroPadding (None, 34, 82, 128)  0           stage2_unit2_relu2[0][0]         
__________________________________________________________________________________________________
stage2_unit2_conv2 (Conv2D)     (None, 32, 80, 128)  147456      zero_padding2d_250[0][0]         
__________________________________________________________________________________________________
add_120 (Add)                   (None, 32, 80, 128)  0           stage2_unit2_conv2[0][0]         
                                                                 add_119[0][0]                    
__________________________________________________________________________________________________
stage2_unit3_bn1 (BatchNormaliz (None, 32, 80, 128)  512         add_120[0][0]                    
__________________________________________________________________________________________________
stage2_unit3_relu1 (Activation) (None, 32, 80, 128)  0           stage2_unit3_bn1[0][0]           
__________________________________________________________________________________________________
zero_padding2d_251 (ZeroPadding (None, 34, 82, 128)  0           stage2_unit3_relu1[0][0]         
__________________________________________________________________________________________________
stage2_unit3_conv1 (Conv2D)     (None, 32, 80, 128)  147456      zero_padding2d_251[0][0]         
__________________________________________________________________________________________________
stage2_unit3_bn2 (BatchNormaliz (None, 32, 80, 128)  512         stage2_unit3_conv1[0][0]         
__________________________________________________________________________________________________
stage2_unit3_relu2 (Activation) (None, 32, 80, 128)  0           stage2_unit3_bn2[0][0]           
__________________________________________________________________________________________________
zero_padding2d_252 (ZeroPadding (None, 34, 82, 128)  0           stage2_unit3_relu2[0][0]         
__________________________________________________________________________________________________
stage2_unit3_conv2 (Conv2D)     (None, 32, 80, 128)  147456      zero_padding2d_252[0][0]         
__________________________________________________________________________________________________
add_121 (Add)                   (None, 32, 80, 128)  0           stage2_unit3_conv2[0][0]         
                                                                 add_120[0][0]                    
__________________________________________________________________________________________________
stage2_unit4_bn1 (BatchNormaliz (None, 32, 80, 128)  512         add_121[0][0]                    
__________________________________________________________________________________________________
stage2_unit4_relu1 (Activation) (None, 32, 80, 128)  0           stage2_unit4_bn1[0][0]           
__________________________________________________________________________________________________
zero_padding2d_253 (ZeroPadding (None, 34, 82, 128)  0           stage2_unit4_relu1[0][0]         
__________________________________________________________________________________________________
stage2_unit4_conv1 (Conv2D)     (None, 32, 80, 128)  147456      zero_padding2d_253[0][0]         
__________________________________________________________________________________________________
stage2_unit4_bn2 (BatchNormaliz (None, 32, 80, 128)  512         stage2_unit4_conv1[0][0]         
__________________________________________________________________________________________________
stage2_unit4_relu2 (Activation) (None, 32, 80, 128)  0           stage2_unit4_bn2[0][0]           
__________________________________________________________________________________________________
zero_padding2d_254 (ZeroPadding (None, 34, 82, 128)  0           stage2_unit4_relu2[0][0]         
__________________________________________________________________________________________________
stage2_unit4_conv2 (Conv2D)     (None, 32, 80, 128)  147456      zero_padding2d_254[0][0]         
__________________________________________________________________________________________________
add_122 (Add)                   (None, 32, 80, 128)  0           stage2_unit4_conv2[0][0]         
                                                                 add_121[0][0]                    
__________________________________________________________________________________________________
stage3_unit1_bn1 (BatchNormaliz (None, 32, 80, 128)  512         add_122[0][0]                    
__________________________________________________________________________________________________
stage3_unit1_relu1 (Activation) (None, 32, 80, 128)  0           stage3_unit1_bn1[0][0]           
__________________________________________________________________________________________________
zero_padding2d_255 (ZeroPadding (None, 34, 82, 128)  0           stage3_unit1_relu1[0][0]         
__________________________________________________________________________________________________
stage3_unit1_conv1 (Conv2D)     (None, 16, 40, 256)  294912      zero_padding2d_255[0][0]         
__________________________________________________________________________________________________
stage3_unit1_bn2 (BatchNormaliz (None, 16, 40, 256)  1024        stage3_unit1_conv1[0][0]         
__________________________________________________________________________________________________
stage3_unit1_relu2 (Activation) (None, 16, 40, 256)  0           stage3_unit1_bn2[0][0]           
__________________________________________________________________________________________________
zero_padding2d_256 (ZeroPadding (None, 18, 42, 256)  0           stage3_unit1_relu2[0][0]         
__________________________________________________________________________________________________
stage3_unit1_conv2 (Conv2D)     (None, 16, 40, 256)  589824      zero_padding2d_256[0][0]         
__________________________________________________________________________________________________
stage3_unit1_sc (Conv2D)        (None, 16, 40, 256)  32768       stage3_unit1_relu1[0][0]         
__________________________________________________________________________________________________
add_123 (Add)                   (None, 16, 40, 256)  0           stage3_unit1_conv2[0][0]         
                                                                 stage3_unit1_sc[0][0]            
__________________________________________________________________________________________________
stage3_unit2_bn1 (BatchNormaliz (None, 16, 40, 256)  1024        add_123[0][0]                    
__________________________________________________________________________________________________
stage3_unit2_relu1 (Activation) (None, 16, 40, 256)  0           stage3_unit2_bn1[0][0]           
__________________________________________________________________________________________________
zero_padding2d_257 (ZeroPadding (None, 18, 42, 256)  0           stage3_unit2_relu1[0][0]         
__________________________________________________________________________________________________
stage3_unit2_conv1 (Conv2D)     (None, 16, 40, 256)  589824      zero_padding2d_257[0][0]         
__________________________________________________________________________________________________
stage3_unit2_bn2 (BatchNormaliz (None, 16, 40, 256)  1024        stage3_unit2_conv1[0][0]         
__________________________________________________________________________________________________
stage3_unit2_relu2 (Activation) (None, 16, 40, 256)  0           stage3_unit2_bn2[0][0]           
__________________________________________________________________________________________________
zero_padding2d_258 (ZeroPadding (None, 18, 42, 256)  0           stage3_unit2_relu2[0][0]         
__________________________________________________________________________________________________
stage3_unit2_conv2 (Conv2D)     (None, 16, 40, 256)  589824      zero_padding2d_258[0][0]         
__________________________________________________________________________________________________
add_124 (Add)                   (None, 16, 40, 256)  0           stage3_unit2_conv2[0][0]         
                                                                 add_123[0][0]                    
__________________________________________________________________________________________________
stage3_unit3_bn1 (BatchNormaliz (None, 16, 40, 256)  1024        add_124[0][0]                    
__________________________________________________________________________________________________
stage3_unit3_relu1 (Activation) (None, 16, 40, 256)  0           stage3_unit3_bn1[0][0]           
__________________________________________________________________________________________________
zero_padding2d_259 (ZeroPadding (None, 18, 42, 256)  0           stage3_unit3_relu1[0][0]         
__________________________________________________________________________________________________
stage3_unit3_conv1 (Conv2D)     (None, 16, 40, 256)  589824      zero_padding2d_259[0][0]         
__________________________________________________________________________________________________
stage3_unit3_bn2 (BatchNormaliz (None, 16, 40, 256)  1024        stage3_unit3_conv1[0][0]         
__________________________________________________________________________________________________
stage3_unit3_relu2 (Activation) (None, 16, 40, 256)  0           stage3_unit3_bn2[0][0]           
__________________________________________________________________________________________________
zero_padding2d_260 (ZeroPadding (None, 18, 42, 256)  0           stage3_unit3_relu2[0][0]         
__________________________________________________________________________________________________
stage3_unit3_conv2 (Conv2D)     (None, 16, 40, 256)  589824      zero_padding2d_260[0][0]         
__________________________________________________________________________________________________
add_125 (Add)                   (None, 16, 40, 256)  0           stage3_unit3_conv2[0][0]         
                                                                 add_124[0][0]                    
__________________________________________________________________________________________________
stage3_unit4_bn1 (BatchNormaliz (None, 16, 40, 256)  1024        add_125[0][0]                    
__________________________________________________________________________________________________
stage3_unit4_relu1 (Activation) (None, 16, 40, 256)  0           stage3_unit4_bn1[0][0]           
__________________________________________________________________________________________________
zero_padding2d_261 (ZeroPadding (None, 18, 42, 256)  0           stage3_unit4_relu1[0][0]         
__________________________________________________________________________________________________
stage3_unit4_conv1 (Conv2D)     (None, 16, 40, 256)  589824      zero_padding2d_261[0][0]         
__________________________________________________________________________________________________
stage3_unit4_bn2 (BatchNormaliz (None, 16, 40, 256)  1024        stage3_unit4_conv1[0][0]         
__________________________________________________________________________________________________
stage3_unit4_relu2 (Activation) (None, 16, 40, 256)  0           stage3_unit4_bn2[0][0]           
__________________________________________________________________________________________________
zero_padding2d_262 (ZeroPadding (None, 18, 42, 256)  0           stage3_unit4_relu2[0][0]         
__________________________________________________________________________________________________
stage3_unit4_conv2 (Conv2D)     (None, 16, 40, 256)  589824      zero_padding2d_262[0][0]         
__________________________________________________________________________________________________
add_126 (Add)                   (None, 16, 40, 256)  0           stage3_unit4_conv2[0][0]         
                                                                 add_125[0][0]                    
__________________________________________________________________________________________________
stage3_unit5_bn1 (BatchNormaliz (None, 16, 40, 256)  1024        add_126[0][0]                    
__________________________________________________________________________________________________
stage3_unit5_relu1 (Activation) (None, 16, 40, 256)  0           stage3_unit5_bn1[0][0]           
__________________________________________________________________________________________________
zero_padding2d_263 (ZeroPadding (None, 18, 42, 256)  0           stage3_unit5_relu1[0][0]         
__________________________________________________________________________________________________
stage3_unit5_conv1 (Conv2D)     (None, 16, 40, 256)  589824      zero_padding2d_263[0][0]         
__________________________________________________________________________________________________
stage3_unit5_bn2 (BatchNormaliz (None, 16, 40, 256)  1024        stage3_unit5_conv1[0][0]         
__________________________________________________________________________________________________
stage3_unit5_relu2 (Activation) (None, 16, 40, 256)  0           stage3_unit5_bn2[0][0]           
__________________________________________________________________________________________________
zero_padding2d_264 (ZeroPadding (None, 18, 42, 256)  0           stage3_unit5_relu2[0][0]         
__________________________________________________________________________________________________
stage3_unit5_conv2 (Conv2D)     (None, 16, 40, 256)  589824      zero_padding2d_264[0][0]         
__________________________________________________________________________________________________
add_127 (Add)                   (None, 16, 40, 256)  0           stage3_unit5_conv2[0][0]         
                                                                 add_126[0][0]                    
__________________________________________________________________________________________________
stage3_unit6_bn1 (BatchNormaliz (None, 16, 40, 256)  1024        add_127[0][0]                    
__________________________________________________________________________________________________
stage3_unit6_relu1 (Activation) (None, 16, 40, 256)  0           stage3_unit6_bn1[0][0]           
__________________________________________________________________________________________________
zero_padding2d_265 (ZeroPadding (None, 18, 42, 256)  0           stage3_unit6_relu1[0][0]         
__________________________________________________________________________________________________
stage3_unit6_conv1 (Conv2D)     (None, 16, 40, 256)  589824      zero_padding2d_265[0][0]         
__________________________________________________________________________________________________
stage3_unit6_bn2 (BatchNormaliz (None, 16, 40, 256)  1024        stage3_unit6_conv1[0][0]         
__________________________________________________________________________________________________
stage3_unit6_relu2 (Activation) (None, 16, 40, 256)  0           stage3_unit6_bn2[0][0]           
__________________________________________________________________________________________________
zero_padding2d_266 (ZeroPadding (None, 18, 42, 256)  0           stage3_unit6_relu2[0][0]         
__________________________________________________________________________________________________
stage3_unit6_conv2 (Conv2D)     (None, 16, 40, 256)  589824      zero_padding2d_266[0][0]         
__________________________________________________________________________________________________
add_128 (Add)                   (None, 16, 40, 256)  0           stage3_unit6_conv2[0][0]         
                                                                 add_127[0][0]                    
__________________________________________________________________________________________________
stage4_unit1_bn1 (BatchNormaliz (None, 16, 40, 256)  1024        add_128[0][0]                    
__________________________________________________________________________________________________
stage4_unit1_relu1 (Activation) (None, 16, 40, 256)  0           stage4_unit1_bn1[0][0]           
__________________________________________________________________________________________________
zero_padding2d_267 (ZeroPadding (None, 18, 42, 256)  0           stage4_unit1_relu1[0][0]         
__________________________________________________________________________________________________
stage4_unit1_conv1 (Conv2D)     (None, 8, 20, 512)   1179648     zero_padding2d_267[0][0]         
__________________________________________________________________________________________________
stage4_unit1_bn2 (BatchNormaliz (None, 8, 20, 512)   2048        stage4_unit1_conv1[0][0]         
__________________________________________________________________________________________________
stage4_unit1_relu2 (Activation) (None, 8, 20, 512)   0           stage4_unit1_bn2[0][0]           
__________________________________________________________________________________________________
zero_padding2d_268 (ZeroPadding (None, 10, 22, 512)  0           stage4_unit1_relu2[0][0]         
__________________________________________________________________________________________________
stage4_unit1_conv2 (Conv2D)     (None, 8, 20, 512)   2359296     zero_padding2d_268[0][0]         
__________________________________________________________________________________________________
stage4_unit1_sc (Conv2D)        (None, 8, 20, 512)   131072      stage4_unit1_relu1[0][0]         
__________________________________________________________________________________________________
add_129 (Add)                   (None, 8, 20, 512)   0           stage4_unit1_conv2[0][0]         
                                                                 stage4_unit1_sc[0][0]            
__________________________________________________________________________________________________
stage4_unit2_bn1 (BatchNormaliz (None, 8, 20, 512)   2048        add_129[0][0]                    
__________________________________________________________________________________________________
stage4_unit2_relu1 (Activation) (None, 8, 20, 512)   0           stage4_unit2_bn1[0][0]           
__________________________________________________________________________________________________
zero_padding2d_269 (ZeroPadding (None, 10, 22, 512)  0           stage4_unit2_relu1[0][0]         
__________________________________________________________________________________________________
stage4_unit2_conv1 (Conv2D)     (None, 8, 20, 512)   2359296     zero_padding2d_269[0][0]         
__________________________________________________________________________________________________
stage4_unit2_bn2 (BatchNormaliz (None, 8, 20, 512)   2048        stage4_unit2_conv1[0][0]         
__________________________________________________________________________________________________
stage4_unit2_relu2 (Activation) (None, 8, 20, 512)   0           stage4_unit2_bn2[0][0]           
__________________________________________________________________________________________________
zero_padding2d_270 (ZeroPadding (None, 10, 22, 512)  0           stage4_unit2_relu2[0][0]         
__________________________________________________________________________________________________
stage4_unit2_conv2 (Conv2D)     (None, 8, 20, 512)   2359296     zero_padding2d_270[0][0]         
__________________________________________________________________________________________________
add_130 (Add)                   (None, 8, 20, 512)   0           stage4_unit2_conv2[0][0]         
                                                                 add_129[0][0]                    
__________________________________________________________________________________________________
stage4_unit3_bn1 (BatchNormaliz (None, 8, 20, 512)   2048        add_130[0][0]                    
__________________________________________________________________________________________________
stage4_unit3_relu1 (Activation) (None, 8, 20, 512)   0           stage4_unit3_bn1[0][0]           
__________________________________________________________________________________________________
zero_padding2d_271 (ZeroPadding (None, 10, 22, 512)  0           stage4_unit3_relu1[0][0]         
__________________________________________________________________________________________________
stage4_unit3_conv1 (Conv2D)     (None, 8, 20, 512)   2359296     zero_padding2d_271[0][0]         
__________________________________________________________________________________________________
stage4_unit3_bn2 (BatchNormaliz (None, 8, 20, 512)   2048        stage4_unit3_conv1[0][0]         
__________________________________________________________________________________________________
stage4_unit3_relu2 (Activation) (None, 8, 20, 512)   0           stage4_unit3_bn2[0][0]           
__________________________________________________________________________________________________
zero_padding2d_272 (ZeroPadding (None, 10, 22, 512)  0           stage4_unit3_relu2[0][0]         
__________________________________________________________________________________________________
stage4_unit3_conv2 (Conv2D)     (None, 8, 20, 512)   2359296     zero_padding2d_272[0][0]         
__________________________________________________________________________________________________
add_131 (Add)                   (None, 8, 20, 512)   0           stage4_unit3_conv2[0][0]         
                                                                 add_130[0][0]                    
__________________________________________________________________________________________________
bn1 (BatchNormalization)        (None, 8, 20, 512)   2048        add_131[0][0]                    
__________________________________________________________________________________________________
relu1 (Activation)              (None, 8, 20, 512)   0           bn1[0][0]                        
__________________________________________________________________________________________________
pyramid_stage_0_conv (Conv2D)   (None, 8, 20, 256)   131072      relu1[0][0]                      
__________________________________________________________________________________________________
pyramid_stage_1_conv (Conv2D)   (None, 16, 40, 256)  65536       stage4_unit1_relu1[0][0]         
__________________________________________________________________________________________________
pyramid_stage_0_bn (BatchNormal (None, 8, 20, 256)   1024        pyramid_stage_0_conv[0][0]       
__________________________________________________________________________________________________
pyramid_stage_1_bn (BatchNormal (None, 16, 40, 256)  1024        pyramid_stage_1_conv[0][0]       
__________________________________________________________________________________________________
pyramid_stage_0_relu (Activatio (None, 8, 20, 256)   0           pyramid_stage_0_bn[0][0]         
__________________________________________________________________________________________________
pyramid_stage_2_conv (Conv2D)   (None, 32, 80, 256)  32768       stage3_unit1_relu1[0][0]         
__________________________________________________________________________________________________
pyramid_stage_1_relu (Activatio (None, 16, 40, 256)  0           pyramid_stage_1_bn[0][0]         
__________________________________________________________________________________________________
resize_image_8 (ResizeImage)    (None, 16, 40, 256)  0           pyramid_stage_0_relu[0][0]       
__________________________________________________________________________________________________
pyramid_stage_2_bn (BatchNormal (None, 32, 80, 256)  1024        pyramid_stage_2_conv[0][0]       
__________________________________________________________________________________________________
add_132 (Add)                   (None, 16, 40, 256)  0           pyramid_stage_1_relu[0][0]       
                                                                 resize_image_8[0][0]             
__________________________________________________________________________________________________
pyramid_stage_3_conv (Conv2D)   (None, 64, 160, 256) 16384       stage2_unit1_relu1[0][0]         
__________________________________________________________________________________________________
pyramid_stage_2_relu (Activatio (None, 32, 80, 256)  0           pyramid_stage_2_bn[0][0]         
__________________________________________________________________________________________________
resize_image_9 (ResizeImage)    (None, 32, 80, 256)  0           add_132[0][0]                    
__________________________________________________________________________________________________
pyramid_stage_3_bn (BatchNormal (None, 64, 160, 256) 1024        pyramid_stage_3_conv[0][0]       
__________________________________________________________________________________________________
add_133 (Add)                   (None, 32, 80, 256)  0           pyramid_stage_2_relu[0][0]       
                                                                 resize_image_9[0][0]             
__________________________________________________________________________________________________
pyramid_stage_3_relu (Activatio (None, 64, 160, 256) 0           pyramid_stage_3_bn[0][0]         
__________________________________________________________________________________________________
resize_image_10 (ResizeImage)   (None, 64, 160, 256) 0           add_133[0][0]                    
__________________________________________________________________________________________________
add_134 (Add)                   (None, 64, 160, 256) 0           pyramid_stage_3_relu[0][0]       
                                                                 resize_image_10[0][0]            
__________________________________________________________________________________________________
segm1_stage_2_conv (Conv2D)     (None, 32, 80, 128)  294912      add_133[0][0]                    
__________________________________________________________________________________________________
segm1_stage_1_conv (Conv2D)     (None, 16, 40, 128)  294912      add_132[0][0]                    
__________________________________________________________________________________________________
segm1_stage_0_conv (Conv2D)     (None, 8, 20, 128)   294912      pyramid_stage_0_relu[0][0]       
__________________________________________________________________________________________________
segm1_stage_3_conv (Conv2D)     (None, 64, 160, 128) 294912      add_134[0][0]                    
__________________________________________________________________________________________________
segm1_stage_2_bn (BatchNormaliz (None, 32, 80, 128)  512         segm1_stage_2_conv[0][0]         
__________________________________________________________________________________________________
segm1_stage_1_bn (BatchNormaliz (None, 16, 40, 128)  512         segm1_stage_1_conv[0][0]         
__________________________________________________________________________________________________
segm1_stage_0_bn (BatchNormaliz (None, 8, 20, 128)   512         segm1_stage_0_conv[0][0]         
__________________________________________________________________________________________________
segm1_stage_3_bn (BatchNormaliz (None, 64, 160, 128) 512         segm1_stage_3_conv[0][0]         
__________________________________________________________________________________________________
segm1_stage_2_relu (Activation) (None, 32, 80, 128)  0           segm1_stage_2_bn[0][0]           
__________________________________________________________________________________________________
segm1_stage_1_relu (Activation) (None, 16, 40, 128)  0           segm1_stage_1_bn[0][0]           
__________________________________________________________________________________________________
segm1_stage_0_relu (Activation) (None, 8, 20, 128)   0           segm1_stage_0_bn[0][0]           
__________________________________________________________________________________________________
segm1_stage_3_relu (Activation) (None, 64, 160, 128) 0           segm1_stage_3_bn[0][0]           
__________________________________________________________________________________________________
segm2_stage_2_conv (Conv2D)     (None, 32, 80, 128)  147456      segm1_stage_2_relu[0][0]         
__________________________________________________________________________________________________
segm2_stage_1_conv (Conv2D)     (None, 16, 40, 128)  147456      segm1_stage_1_relu[0][0]         
__________________________________________________________________________________________________
segm2_stage_0_conv (Conv2D)     (None, 8, 20, 128)   147456      segm1_stage_0_relu[0][0]         
__________________________________________________________________________________________________
segm2_stage_3_conv (Conv2D)     (None, 64, 160, 128) 147456      segm1_stage_3_relu[0][0]         
__________________________________________________________________________________________________
segm2_stage_2_bn (BatchNormaliz (None, 32, 80, 128)  512         segm2_stage_2_conv[0][0]         
__________________________________________________________________________________________________
segm2_stage_1_bn (BatchNormaliz (None, 16, 40, 128)  512         segm2_stage_1_conv[0][0]         
__________________________________________________________________________________________________
segm2_stage_0_bn (BatchNormaliz (None, 8, 20, 128)   512         segm2_stage_0_conv[0][0]         
__________________________________________________________________________________________________
segm2_stage_3_bn (BatchNormaliz (None, 64, 160, 128) 512         segm2_stage_3_conv[0][0]         
__________________________________________________________________________________________________
segm2_stage_2_relu (Activation) (None, 32, 80, 128)  0           segm2_stage_2_bn[0][0]           
__________________________________________________________________________________________________
segm2_stage_1_relu (Activation) (None, 16, 40, 128)  0           segm2_stage_1_bn[0][0]           
__________________________________________________________________________________________________
segm2_stage_0_relu (Activation) (None, 8, 20, 128)   0           segm2_stage_0_bn[0][0]           
__________________________________________________________________________________________________
segm2_stage_3_relu (Activation) (None, 64, 160, 128) 0           segm2_stage_3_bn[0][0]           
__________________________________________________________________________________________________
resize_image_11 (ResizeImage)   (None, 64, 160, 128) 0           segm2_stage_2_relu[0][0]         
__________________________________________________________________________________________________
resize_image_12 (ResizeImage)   (None, 64, 160, 128) 0           segm2_stage_1_relu[0][0]         
__________________________________________________________________________________________________
resize_image_13 (ResizeImage)   (None, 64, 160, 128) 0           segm2_stage_0_relu[0][0]         
__________________________________________________________________________________________________
concatenate_22 (Concatenate)    (None, 64, 160, 512) 0           segm2_stage_3_relu[0][0]         
                                                                 resize_image_11[0][0]            
                                                                 resize_image_12[0][0]            
                                                                 resize_image_13[0][0]            
__________________________________________________________________________________________________
conv_block_conv (Conv2D)        (None, 64, 160, 512) 2359296     concatenate_22[0][0]             
__________________________________________________________________________________________________
conv_block_bn (BatchNormalizati (None, 64, 160, 512) 2048        conv_block_conv[0][0]            
__________________________________________________________________________________________________
conv_block_relu (Activation)    (None, 64, 160, 512) 0           conv_block_bn[0][0]              
__________________________________________________________________________________________________
conv2d_2 (Conv2D)               (None, 64, 160, 3)   13827       conv_block_relu[0][0]            
__________________________________________________________________________________________________
resize_image_14 (ResizeImage)   (None, 256, 640, 3)  0           conv2d_2[0][0]                   
__________________________________________________________________________________________________
activation_2 (Activation)       (None, 256, 640, 3)  0           resize_image_14[0][0]            
==================================================================================================
Total params: 25,701,068
Trainable params: 25,680,582
Non-trainable params: 20,486
__________________________________________________________________________________________________
Model summary:
__________________________________________________________________________________________________
Layer (type)                    Output Shape         Param #     Connected to                     
==================================================================================================
data (InputLayer)               (None, 256, 640, 3)  0                                            
__________________________________________________________________________________________________
bn_data (BatchNormalization)    (None, 256, 640, 3)  9           data[0][0]                       
__________________________________________________________________________________________________
zero_padding2d_341 (ZeroPadding (None, 262, 646, 3)  0           bn_data[0][0]                    
__________________________________________________________________________________________________
conv0 (Conv2D)                  (None, 128, 320, 64) 9408        zero_padding2d_341[0][0]         
__________________________________________________________________________________________________
bn0 (BatchNormalization)        (None, 128, 320, 64) 256         conv0[0][0]                      
__________________________________________________________________________________________________
relu0 (Activation)              (None, 128, 320, 64) 0           bn0[0][0]                        
__________________________________________________________________________________________________
zero_padding2d_342 (ZeroPadding (None, 130, 322, 64) 0           relu0[0][0]                      
__________________________________________________________________________________________________
pooling0 (MaxPooling2D)         (None, 64, 160, 64)  0           zero_padding2d_342[0][0]         
__________________________________________________________________________________________________
stage1_unit1_bn1 (BatchNormaliz (None, 64, 160, 64)  256         pooling0[0][0]                   
__________________________________________________________________________________________________
stage1_unit1_relu1 (Activation) (None, 64, 160, 64)  0           stage1_unit1_bn1[0][0]           
__________________________________________________________________________________________________
zero_padding2d_343 (ZeroPadding (None, 66, 162, 64)  0           stage1_unit1_relu1[0][0]         
__________________________________________________________________________________________________
stage1_unit1_conv1 (Conv2D)     (None, 64, 160, 64)  36864       zero_padding2d_343[0][0]         
__________________________________________________________________________________________________
stage1_unit1_bn2 (BatchNormaliz (None, 64, 160, 64)  256         stage1_unit1_conv1[0][0]         
__________________________________________________________________________________________________
stage1_unit1_relu2 (Activation) (None, 64, 160, 64)  0           stage1_unit1_bn2[0][0]           
__________________________________________________________________________________________________
zero_padding2d_344 (ZeroPadding (None, 66, 162, 64)  0           stage1_unit1_relu2[0][0]         
__________________________________________________________________________________________________
stage1_unit1_conv2 (Conv2D)     (None, 64, 160, 64)  36864       zero_padding2d_344[0][0]         
__________________________________________________________________________________________________
stage1_unit1_sc (Conv2D)        (None, 64, 160, 64)  4096        stage1_unit1_relu1[0][0]         
__________________________________________________________________________________________________
add_170 (Add)                   (None, 64, 160, 64)  0           stage1_unit1_conv2[0][0]         
                                                                 stage1_unit1_sc[0][0]            
__________________________________________________________________________________________________
stage1_unit2_bn1 (BatchNormaliz (None, 64, 160, 64)  256         add_170[0][0]                    
__________________________________________________________________________________________________
stage1_unit2_relu1 (Activation) (None, 64, 160, 64)  0           stage1_unit2_bn1[0][0]           
__________________________________________________________________________________________________
zero_padding2d_345 (ZeroPadding (None, 66, 162, 64)  0           stage1_unit2_relu1[0][0]         
__________________________________________________________________________________________________
stage1_unit2_conv1 (Conv2D)     (None, 64, 160, 64)  36864       zero_padding2d_345[0][0]         
__________________________________________________________________________________________________
stage1_unit2_bn2 (BatchNormaliz (None, 64, 160, 64)  256         stage1_unit2_conv1[0][0]         
__________________________________________________________________________________________________
stage1_unit2_relu2 (Activation) (None, 64, 160, 64)  0           stage1_unit2_bn2[0][0]           
__________________________________________________________________________________________________
zero_padding2d_346 (ZeroPadding (None, 66, 162, 64)  0           stage1_unit2_relu2[0][0]         
__________________________________________________________________________________________________
stage1_unit2_conv2 (Conv2D)     (None, 64, 160, 64)  36864       zero_padding2d_346[0][0]         
__________________________________________________________________________________________________
add_171 (Add)                   (None, 64, 160, 64)  0           stage1_unit2_conv2[0][0]         
                                                                 add_170[0][0]                    
__________________________________________________________________________________________________
stage1_unit3_bn1 (BatchNormaliz (None, 64, 160, 64)  256         add_171[0][0]                    
__________________________________________________________________________________________________
stage1_unit3_relu1 (Activation) (None, 64, 160, 64)  0           stage1_unit3_bn1[0][0]           
__________________________________________________________________________________________________
zero_padding2d_347 (ZeroPadding (None, 66, 162, 64)  0           stage1_unit3_relu1[0][0]         
__________________________________________________________________________________________________
stage1_unit3_conv1 (Conv2D)     (None, 64, 160, 64)  36864       zero_padding2d_347[0][0]         
__________________________________________________________________________________________________
stage1_unit3_bn2 (BatchNormaliz (None, 64, 160, 64)  256         stage1_unit3_conv1[0][0]         
__________________________________________________________________________________________________
stage1_unit3_relu2 (Activation) (None, 64, 160, 64)  0           stage1_unit3_bn2[0][0]           
__________________________________________________________________________________________________
zero_padding2d_348 (ZeroPadding (None, 66, 162, 64)  0           stage1_unit3_relu2[0][0]         
__________________________________________________________________________________________________
stage1_unit3_conv2 (Conv2D)     (None, 64, 160, 64)  36864       zero_padding2d_348[0][0]         
__________________________________________________________________________________________________
add_172 (Add)                   (None, 64, 160, 64)  0           stage1_unit3_conv2[0][0]         
                                                                 add_171[0][0]                    
__________________________________________________________________________________________________
stage2_unit1_bn1 (BatchNormaliz (None, 64, 160, 64)  256         add_172[0][0]                    
__________________________________________________________________________________________________
stage2_unit1_relu1 (Activation) (None, 64, 160, 64)  0           stage2_unit1_bn1[0][0]           
__________________________________________________________________________________________________
zero_padding2d_349 (ZeroPadding (None, 66, 162, 64)  0           stage2_unit1_relu1[0][0]         
__________________________________________________________________________________________________
stage2_unit1_conv1 (Conv2D)     (None, 32, 80, 128)  73728       zero_padding2d_349[0][0]         
__________________________________________________________________________________________________
stage2_unit1_bn2 (BatchNormaliz (None, 32, 80, 128)  512         stage2_unit1_conv1[0][0]         
__________________________________________________________________________________________________
stage2_unit1_relu2 (Activation) (None, 32, 80, 128)  0           stage2_unit1_bn2[0][0]           
__________________________________________________________________________________________________
zero_padding2d_350 (ZeroPadding (None, 34, 82, 128)  0           stage2_unit1_relu2[0][0]         
__________________________________________________________________________________________________
stage2_unit1_conv2 (Conv2D)     (None, 32, 80, 128)  147456      zero_padding2d_350[0][0]         
__________________________________________________________________________________________________
stage2_unit1_sc (Conv2D)        (None, 32, 80, 128)  8192        stage2_unit1_relu1[0][0]         
__________________________________________________________________________________________________
add_173 (Add)                   (None, 32, 80, 128)  0           stage2_unit1_conv2[0][0]         
                                                                 stage2_unit1_sc[0][0]            
__________________________________________________________________________________________________
stage2_unit2_bn1 (BatchNormaliz (None, 32, 80, 128)  512         add_173[0][0]                    
__________________________________________________________________________________________________
stage2_unit2_relu1 (Activation) (None, 32, 80, 128)  0           stage2_unit2_bn1[0][0]           
__________________________________________________________________________________________________
zero_padding2d_351 (ZeroPadding (None, 34, 82, 128)  0           stage2_unit2_relu1[0][0]         
__________________________________________________________________________________________________
stage2_unit2_conv1 (Conv2D)     (None, 32, 80, 128)  147456      zero_padding2d_351[0][0]         
__________________________________________________________________________________________________
stage2_unit2_bn2 (BatchNormaliz (None, 32, 80, 128)  512         stage2_unit2_conv1[0][0]         
__________________________________________________________________________________________________
stage2_unit2_relu2 (Activation) (None, 32, 80, 128)  0           stage2_unit2_bn2[0][0]           
__________________________________________________________________________________________________
zero_padding2d_352 (ZeroPadding (None, 34, 82, 128)  0           stage2_unit2_relu2[0][0]         
__________________________________________________________________________________________________
stage2_unit2_conv2 (Conv2D)     (None, 32, 80, 128)  147456      zero_padding2d_352[0][0]         
__________________________________________________________________________________________________
add_174 (Add)                   (None, 32, 80, 128)  0           stage2_unit2_conv2[0][0]         
                                                                 add_173[0][0]                    
__________________________________________________________________________________________________
stage2_unit3_bn1 (BatchNormaliz (None, 32, 80, 128)  512         add_174[0][0]                    
__________________________________________________________________________________________________
stage2_unit3_relu1 (Activation) (None, 32, 80, 128)  0           stage2_unit3_bn1[0][0]           
__________________________________________________________________________________________________
zero_padding2d_353 (ZeroPadding (None, 34, 82, 128)  0           stage2_unit3_relu1[0][0]         
__________________________________________________________________________________________________
stage2_unit3_conv1 (Conv2D)     (None, 32, 80, 128)  147456      zero_padding2d_353[0][0]         
__________________________________________________________________________________________________
stage2_unit3_bn2 (BatchNormaliz (None, 32, 80, 128)  512         stage2_unit3_conv1[0][0]         
__________________________________________________________________________________________________
stage2_unit3_relu2 (Activation) (None, 32, 80, 128)  0           stage2_unit3_bn2[0][0]           
__________________________________________________________________________________________________
zero_padding2d_354 (ZeroPadding (None, 34, 82, 128)  0           stage2_unit3_relu2[0][0]         
__________________________________________________________________________________________________
stage2_unit3_conv2 (Conv2D)     (None, 32, 80, 128)  147456      zero_padding2d_354[0][0]         
__________________________________________________________________________________________________
add_175 (Add)                   (None, 32, 80, 128)  0           stage2_unit3_conv2[0][0]         
                                                                 add_174[0][0]                    
__________________________________________________________________________________________________
stage2_unit4_bn1 (BatchNormaliz (None, 32, 80, 128)  512         add_175[0][0]                    
__________________________________________________________________________________________________
stage2_unit4_relu1 (Activation) (None, 32, 80, 128)  0           stage2_unit4_bn1[0][0]           
__________________________________________________________________________________________________
zero_padding2d_355 (ZeroPadding (None, 34, 82, 128)  0           stage2_unit4_relu1[0][0]         
__________________________________________________________________________________________________
stage2_unit4_conv1 (Conv2D)     (None, 32, 80, 128)  147456      zero_padding2d_355[0][0]         
__________________________________________________________________________________________________
stage2_unit4_bn2 (BatchNormaliz (None, 32, 80, 128)  512         stage2_unit4_conv1[0][0]         
__________________________________________________________________________________________________
stage2_unit4_relu2 (Activation) (None, 32, 80, 128)  0           stage2_unit4_bn2[0][0]           
__________________________________________________________________________________________________
zero_padding2d_356 (ZeroPadding (None, 34, 82, 128)  0           stage2_unit4_relu2[0][0]         
__________________________________________________________________________________________________
stage2_unit4_conv2 (Conv2D)     (None, 32, 80, 128)  147456      zero_padding2d_356[0][0]         
__________________________________________________________________________________________________
add_176 (Add)                   (None, 32, 80, 128)  0           stage2_unit4_conv2[0][0]         
                                                                 add_175[0][0]                    
__________________________________________________________________________________________________
stage3_unit1_bn1 (BatchNormaliz (None, 32, 80, 128)  512         add_176[0][0]                    
__________________________________________________________________________________________________
stage3_unit1_relu1 (Activation) (None, 32, 80, 128)  0           stage3_unit1_bn1[0][0]           
__________________________________________________________________________________________________
zero_padding2d_357 (ZeroPadding (None, 34, 82, 128)  0           stage3_unit1_relu1[0][0]         
__________________________________________________________________________________________________
stage3_unit1_conv1 (Conv2D)     (None, 16, 40, 256)  294912      zero_padding2d_357[0][0]         
__________________________________________________________________________________________________
stage3_unit1_bn2 (BatchNormaliz (None, 16, 40, 256)  1024        stage3_unit1_conv1[0][0]         
__________________________________________________________________________________________________
stage3_unit1_relu2 (Activation) (None, 16, 40, 256)  0           stage3_unit1_bn2[0][0]           
__________________________________________________________________________________________________
zero_padding2d_358 (ZeroPadding (None, 18, 42, 256)  0           stage3_unit1_relu2[0][0]         
__________________________________________________________________________________________________
stage3_unit1_conv2 (Conv2D)     (None, 16, 40, 256)  589824      zero_padding2d_358[0][0]         
__________________________________________________________________________________________________
stage3_unit1_sc (Conv2D)        (None, 16, 40, 256)  32768       stage3_unit1_relu1[0][0]         
__________________________________________________________________________________________________
add_177 (Add)                   (None, 16, 40, 256)  0           stage3_unit1_conv2[0][0]         
                                                                 stage3_unit1_sc[0][0]            
__________________________________________________________________________________________________
stage3_unit2_bn1 (BatchNormaliz (None, 16, 40, 256)  1024        add_177[0][0]                    
__________________________________________________________________________________________________
stage3_unit2_relu1 (Activation) (None, 16, 40, 256)  0           stage3_unit2_bn1[0][0]           
__________________________________________________________________________________________________
zero_padding2d_359 (ZeroPadding (None, 18, 42, 256)  0           stage3_unit2_relu1[0][0]         
__________________________________________________________________________________________________
stage3_unit2_conv1 (Conv2D)     (None, 16, 40, 256)  589824      zero_padding2d_359[0][0]         
__________________________________________________________________________________________________
stage3_unit2_bn2 (BatchNormaliz (None, 16, 40, 256)  1024        stage3_unit2_conv1[0][0]         
__________________________________________________________________________________________________
stage3_unit2_relu2 (Activation) (None, 16, 40, 256)  0           stage3_unit2_bn2[0][0]           
__________________________________________________________________________________________________
zero_padding2d_360 (ZeroPadding (None, 18, 42, 256)  0           stage3_unit2_relu2[0][0]         
__________________________________________________________________________________________________
stage3_unit2_conv2 (Conv2D)     (None, 16, 40, 256)  589824      zero_padding2d_360[0][0]         
__________________________________________________________________________________________________
add_178 (Add)                   (None, 16, 40, 256)  0           stage3_unit2_conv2[0][0]         
                                                                 add_177[0][0]                    
__________________________________________________________________________________________________
stage3_unit3_bn1 (BatchNormaliz (None, 16, 40, 256)  1024        add_178[0][0]                    
__________________________________________________________________________________________________
stage3_unit3_relu1 (Activation) (None, 16, 40, 256)  0           stage3_unit3_bn1[0][0]           
__________________________________________________________________________________________________
zero_padding2d_361 (ZeroPadding (None, 18, 42, 256)  0           stage3_unit3_relu1[0][0]         
__________________________________________________________________________________________________
stage3_unit3_conv1 (Conv2D)     (None, 16, 40, 256)  589824      zero_padding2d_361[0][0]         
__________________________________________________________________________________________________
stage3_unit3_bn2 (BatchNormaliz (None, 16, 40, 256)  1024        stage3_unit3_conv1[0][0]         
__________________________________________________________________________________________________
stage3_unit3_relu2 (Activation) (None, 16, 40, 256)  0           stage3_unit3_bn2[0][0]           
__________________________________________________________________________________________________
zero_padding2d_362 (ZeroPadding (None, 18, 42, 256)  0           stage3_unit3_relu2[0][0]         
__________________________________________________________________________________________________
stage3_unit3_conv2 (Conv2D)     (None, 16, 40, 256)  589824      zero_padding2d_362[0][0]         
__________________________________________________________________________________________________
add_179 (Add)                   (None, 16, 40, 256)  0           stage3_unit3_conv2[0][0]         
                                                                 add_178[0][0]                    
__________________________________________________________________________________________________
stage3_unit4_bn1 (BatchNormaliz (None, 16, 40, 256)  1024        add_179[0][0]                    
__________________________________________________________________________________________________
stage3_unit4_relu1 (Activation) (None, 16, 40, 256)  0           stage3_unit4_bn1[0][0]           
__________________________________________________________________________________________________
…
__________________________________________________________________________________________________
conv2d_134 (Conv2D)             (None, 16, 40, 192)  172032      activation_133[0][0]             
__________________________________________________________________________________________________
conv2d_139 (Conv2D)             (None, 16, 40, 192)  172032      activation_138[0][0]             
__________________________________________________________________________________________________
conv2d_140 (Conv2D)             (None, 16, 40, 192)  147456      average_pooling2d_13[0][0]       
__________________________________________________________________________________________________
batch_normalization_125 (BatchN (None, 16, 40, 192)  576         conv2d_131[0][0]                 
__________________________________________________________________________________________________
batch_normalization_128 (BatchN (None, 16, 40, 192)  576         conv2d_134[0][0]                 
__________________________________________________________________________________________________
batch_normalization_133 (BatchN (None, 16, 40, 192)  576         conv2d_139[0][0]                 
__________________________________________________________________________________________________
batch_normalization_134 (BatchN (None, 16, 40, 192)  576         conv2d_140[0][0]                 
__________________________________________________________________________________________________
activation_131 (Activation)     (None, 16, 40, 192)  0           batch_normalization_125[0][0]    
__________________________________________________________________________________________________
activation_134 (Activation)     (None, 16, 40, 192)  0           batch_normalization_128[0][0]    
__________________________________________________________________________________________________
activation_139 (Activation)     (None, 16, 40, 192)  0           batch_normalization_133[0][0]    
__________________________________________________________________________________________________
activation_140 (Activation)     (None, 16, 40, 192)  0           batch_normalization_134[0][0]    
__________________________________________________________________________________________________
mixed4 (Concatenate)            (None, 16, 40, 768)  0           activation_131[0][0]             
                                                                 activation_134[0][0]             
                                                                 activation_139[0][0]             
                                                                 activation_140[0][0]             
__________________________________________________________________________________________________
conv2d_145 (Conv2D)             (None, 16, 40, 160)  122880      mixed4[0][0]                     
__________________________________________________________________________________________________
batch_normalization_139 (BatchN (None, 16, 40, 160)  480         conv2d_145[0][0]                 
__________________________________________________________________________________________________
activation_145 (Activation)     (None, 16, 40, 160)  0           batch_normalization_139[0][0]    
__________________________________________________________________________________________________
conv2d_146 (Conv2D)             (None, 16, 40, 160)  179200      activation_145[0][0]             
__________________________________________________________________________________________________
batch_normalization_140 (BatchN (None, 16, 40, 160)  480         conv2d_146[0][0]                 
__________________________________________________________________________________________________
activation_146 (Activation)     (None, 16, 40, 160)  0           batch_normalization_140[0][0]    
__________________________________________________________________________________________________
conv2d_142 (Conv2D)             (None, 16, 40, 160)  122880      mixed4[0][0]                     
__________________________________________________________________________________________________
conv2d_147 (Conv2D)             (None, 16, 40, 160)  179200      activation_146[0][0]             
__________________________________________________________________________________________________
batch_normalization_136 (BatchN (None, 16, 40, 160)  480         conv2d_142[0][0]                 
__________________________________________________________________________________________________
batch_normalization_141 (BatchN (None, 16, 40, 160)  480         conv2d_147[0][0]                 
__________________________________________________________________________________________________
activation_142 (Activation)     (None, 16, 40, 160)  0           batch_normalization_136[0][0]    
__________________________________________________________________________________________________
activation_147 (Activation)     (None, 16, 40, 160)  0           batch_normalization_141[0][0]    
__________________________________________________________________________________________________
conv2d_143 (Conv2D)             (None, 16, 40, 160)  179200      activation_142[0][0]             
__________________________________________________________________________________________________
conv2d_148 (Conv2D)             (None, 16, 40, 160)  179200      activation_147[0][0]             
__________________________________________________________________________________________________
batch_normalization_137 (BatchN (None, 16, 40, 160)  480         conv2d_143[0][0]                 
__________________________________________________________________________________________________
batch_normalization_142 (BatchN (None, 16, 40, 160)  480         conv2d_148[0][0]                 
__________________________________________________________________________________________________
activation_143 (Activation)     (None, 16, 40, 160)  0           batch_normalization_137[0][0]    
__________________________________________________________________________________________________
activation_148 (Activation)     (None, 16, 40, 160)  0           batch_normalization_142[0][0]    
__________________________________________________________________________________________________
average_pooling2d_14 (AveragePo (None, 16, 40, 768)  0           mixed4[0][0]                     
__________________________________________________________________________________________________
conv2d_141 (Conv2D)             (None, 16, 40, 192)  147456      mixed4[0][0]                     
__________________________________________________________________________________________________
conv2d_144 (Conv2D)             (None, 16, 40, 192)  215040      activation_143[0][0]             
__________________________________________________________________________________________________
conv2d_149 (Conv2D)             (None, 16, 40, 192)  215040      activation_148[0][0]             
__________________________________________________________________________________________________
conv2d_150 (Conv2D)             (None, 16, 40, 192)  147456      average_pooling2d_14[0][0]       
__________________________________________________________________________________________________
batch_normalization_135 (BatchN (None, 16, 40, 192)  576         conv2d_141[0][0]                 
__________________________________________________________________________________________________
batch_normalization_138 (BatchN (None, 16, 40, 192)  576         conv2d_144[0][0]                 
__________________________________________________________________________________________________
batch_normalization_143 (BatchN (None, 16, 40, 192)  576         conv2d_149[0][0]                 
__________________________________________________________________________________________________
batch_normalization_144 (BatchN (None, 16, 40, 192)  576         conv2d_150[0][0]                 
__________________________________________________________________________________________________
activation_141 (Activation)     (None, 16, 40, 192)  0           batch_normalization_135[0][0]    
__________________________________________________________________________________________________
activation_144 (Activation)     (None, 16, 40, 192)  0           batch_normalization_138[0][0]    
__________________________________________________________________________________________________
activation_149 (Activation)     (None, 16, 40, 192)  0           batch_normalization_143[0][0]    
__________________________________________________________________________________________________
activation_150 (Activation)     (None, 16, 40, 192)  0           batch_normalization_144[0][0]    
__________________________________________________________________________________________________
mixed5 (Concatenate)            (None, 16, 40, 768)  0           activation_141[0][0]             
                                                                 activation_144[0][0]             
                                                                 activation_149[0][0]             
                                                                 activation_150[0][0]             
__________________________________________________________________________________________________
conv2d_155 (Conv2D)             (None, 16, 40, 160)  122880      mixed5[0][0]                     
__________________________________________________________________________________________________
batch_normalization_149 (BatchN (None, 16, 40, 160)  480         conv2d_155[0][0]                 
__________________________________________________________________________________________________
activation_155 (Activation)     (None, 16, 40, 160)  0           batch_normalization_149[0][0]    
__________________________________________________________________________________________________
conv2d_156 (Conv2D)             (None, 16, 40, 160)  179200      activation_155[0][0]             
__________________________________________________________________________________________________
batch_normalization_150 (BatchN (None, 16, 40, 160)  480         conv2d_156[0][0]                 
__________________________________________________________________________________________________
activation_156 (Activation)     (None, 16, 40, 160)  0           batch_normalization_150[0][0]    
__________________________________________________________________________________________________
conv2d_152 (Conv2D)             (None, 16, 40, 160)  122880      mixed5[0][0]                     
__________________________________________________________________________________________________
conv2d_157 (Conv2D)             (None, 16, 40, 160)  179200      activation_156[0][0]             
__________________________________________________________________________________________________
batch_normalization_146 (BatchN (None, 16, 40, 160)  480         conv2d_152[0][0]                 
__________________________________________________________________________________________________
batch_normalization_151 (BatchN (None, 16, 40, 160)  480         conv2d_157[0][0]                 
__________________________________________________________________________________________________
activation_152 (Activation)     (None, 16, 40, 160)  0           batch_normalization_146[0][0]    
__________________________________________________________________________________________________
activation_157 (Activation)     (None, 16, 40, 160)  0           batch_normalization_151[0][0]    
__________________________________________________________________________________________________
conv2d_153 (Conv2D)             (None, 16, 40, 160)  179200      activation_152[0][0]             
__________________________________________________________________________________________________
conv2d_158 (Conv2D)             (None, 16, 40, 160)  179200      activation_157[0][0]             
__________________________________________________________________________________________________
batch_normalization_147 (BatchN (None, 16, 40, 160)  480         conv2d_153[0][0]                 
__________________________________________________________________________________________________
batch_normalization_152 (BatchN (None, 16, 40, 160)  480         conv2d_158[0][0]                 
__________________________________________________________________________________________________
activation_153 (Activation)     (None, 16, 40, 160)  0           batch_normalization_147[0][0]    
__________________________________________________________________________________________________
activation_158 (Activation)     (None, 16, 40, 160)  0           batch_normalization_152[0][0]    
__________________________________________________________________________________________________
average_pooling2d_15 (AveragePo (None, 16, 40, 768)  0           mixed5[0][0]                     
__________________________________________________________________________________________________
conv2d_151 (Conv2D)             (None, 16, 40, 192)  147456      mixed5[0][0]                     
__________________________________________________________________________________________________
conv2d_154 (Conv2D)             (None, 16, 40, 192)  215040      activation_153[0][0]             
__________________________________________________________________________________________________
conv2d_159 (Conv2D)             (None, 16, 40, 192)  215040      activation_158[0][0]             
__________________________________________________________________________________________________
conv2d_160 (Conv2D)             (None, 16, 40, 192)  147456      average_pooling2d_15[0][0]       
__________________________________________________________________________________________________
batch_normalization_145 (BatchN (None, 16, 40, 192)  576         conv2d_151[0][0]                 
__________________________________________________________________________________________________
batch_normalization_148 (BatchN (None, 16, 40, 192)  576         conv2d_154[0][0]                 
__________________________________________________________________________________________________
batch_normalization_153 (BatchN (None, 16, 40, 192)  576         conv2d_159[0][0]                 
__________________________________________________________________________________________________
batch_normalization_154 (BatchN (None, 16, 40, 192)  576         conv2d_160[0][0]                 
__________________________________________________________________________________________________
activation_151 (Activation)     (None, 16, 40, 192)  0           batch_normalization_145[0][0]    
__________________________________________________________________________________________________
activation_154 (Activation)     (None, 16, 40, 192)  0           batch_normalization_148[0][0]    
__________________________________________________________________________________________________
activation_159 (Activation)     (None, 16, 40, 192)  0           batch_normalization_153[0][0]    
__________________________________________________________________________________________________
activation_160 (Activation)     (None, 16, 40, 192)  0           batch_normalization_154[0][0]    
__________________________________________________________________________________________________
mixed6 (Concatenate)            (None, 16, 40, 768)  0           activation_151[0][0]             
                                                                 activation_154[0][0]             
                                                                 activation_159[0][0]             
                                                                 activation_160[0][0]             
__________________________________________________________________________________________________
conv2d_165 (Conv2D)             (None, 16, 40, 192)  147456      mixed6[0][0]                     
__________________________________________________________________________________________________
batch_normalization_159 (BatchN (None, 16, 40, 192)  576         conv2d_165[0][0]                 
__________________________________________________________________________________________________
activation_165 (Activation)     (None, 16, 40, 192)  0           batch_normalization_159[0][0]    
__________________________________________________________________________________________________
conv2d_166 (Conv2D)             (None, 16, 40, 192)  258048      activation_165[0][0]             
__________________________________________________________________________________________________
batch_normalization_160 (BatchN (None, 16, 40, 192)  576         conv2d_166[0][0]                 
__________________________________________________________________________________________________
activation_166 (Activation)     (None, 16, 40, 192)  0           batch_normalization_160[0][0]    
__________________________________________________________________________________________________
conv2d_162 (Conv2D)             (None, 16, 40, 192)  147456      mixed6[0][0]                     
__________________________________________________________________________________________________
conv2d_167 (Conv2D)             (None, 16, 40, 192)  258048      activation_166[0][0]             
__________________________________________________________________________________________________
batch_normalization_156 (BatchN (None, 16, 40, 192)  576         conv2d_162[0][0]                 
__________________________________________________________________________________________________
batch_normalization_161 (BatchN (None, 16, 40, 192)  576         conv2d_167[0][0]                 
__________________________________________________________________________________________________
activation_162 (Activation)     (None, 16, 40, 192)  0           batch_normalization_156[0][0]    
__________________________________________________________________________________________________
activation_167 (Activation)     (None, 16, 40, 192)  0           batch_normalization_161[0][0]    
__________________________________________________________________________________________________
conv2d_163 (Conv2D)             (None, 16, 40, 192)  258048      activation_162[0][0]             
__________________________________________________________________________________________________
conv2d_168 (Conv2D)             (None, 16, 40, 192)  258048      activation_167[0][0]             
__________________________________________________________________________________________________
batch_normalization_157 (BatchN (None, 16, 40, 192)  576         conv2d_163[0][0]                 
__________________________________________________________________________________________________
batch_normalization_162 (BatchN (None, 16, 40, 192)  576         conv2d_168[0][0]                 
__________________________________________________________________________________________________
activation_163 (Activation)     (None, 16, 40, 192)  0           batch_normalization_157[0][0]    
__________________________________________________________________________________________________
activation_168 (Activation)     (None, 16, 40, 192)  0           batch_normalization_162[0][0]    
__________________________________________________________________________________________________
average_pooling2d_16 (AveragePo (None, 16, 40, 768)  0           mixed6[0][0]                     
__________________________________________________________________________________________________
conv2d_161 (Conv2D)             (None, 16, 40, 192)  147456      mixed6[0][0]                     
__________________________________________________________________________________________________
conv2d_164 (Conv2D)             (None, 16, 40, 192)  258048      activation_163[0][0]             
__________________________________________________________________________________________________
conv2d_169 (Conv2D)             (None, 16, 40, 192)  258048      activation_168[0][0]             
__________________________________________________________________________________________________
conv2d_170 (Conv2D)             (None, 16, 40, 192)  147456      average_pooling2d_16[0][0]       
__________________________________________________________________________________________________
batch_normalization_155 (BatchN (None, 16, 40, 192)  576         conv2d_161[0][0]                 
__________________________________________________________________________________________________
batch_normalization_158 (BatchN (None, 16, 40, 192)  576         conv2d_164[0][0]                 
__________________________________________________________________________________________________
batch_normalization_163 (BatchN (None, 16, 40, 192)  576         conv2d_169[0][0]                 
__________________________________________________________________________________________________
batch_normalization_164 (BatchN (None, 16, 40, 192)  576         conv2d_170[0][0]                 
__________________________________________________________________________________________________
activation_161 (Activation)     (None, 16, 40, 192)  0           batch_normalization_155[0][0]    
__________________________________________________________________________________________________
activation_164 (Activation)     (None, 16, 40, 192)  0           batch_normalization_158[0][0]    
__________________________________________________________________________________________________
activation_169 (Activation)     (None, 16, 40, 192)  0           batch_normalization_163[0][0]    
__________________________________________________________________________________________________
activation_170 (Activation)     (None, 16, 40, 192)  0           batch_normalization_164[0][0]    
__________________________________________________________________________________________________
mixed7 (Concatenate)            (None, 16, 40, 768)  0           activation_161[0][0]             
                                                                 activation_164[0][0]             
                                                                 activation_169[0][0]             
                                                                 activation_170[0][0]             
__________________________________________________________________________________________________
conv2d_173 (Conv2D)             (None, 16, 40, 192)  147456      mixed7[0][0]                     
__________________________________________________________________________________________________
batch_normalization_167 (BatchN (None, 16, 40, 192)  576         conv2d_173[0][0]                 
__________________________________________________________________________________________________
activation_173 (Activation)     (None, 16, 40, 192)  0           batch_normalization_167[0][0]    
__________________________________________________________________________________________________
conv2d_174 (Conv2D)             (None, 16, 40, 192)  258048      activation_173[0][0]             
__________________________________________________________________________________________________
batch_normalization_168 (BatchN (None, 16, 40, 192)  576         conv2d_174[0][0]                 
__________________________________________________________________________________________________
activation_174 (Activation)     (None, 16, 40, 192)  0           batch_normalization_168[0][0]    
__________________________________________________________________________________________________
conv2d_171 (Conv2D)             (None, 16, 40, 192)  147456      mixed7[0][0]                     
__________________________________________________________________________________________________
conv2d_175 (Conv2D)             (None, 16, 40, 192)  258048      activation_174[0][0]             
__________________________________________________________________________________________________
batch_normalization_165 (BatchN (None, 16, 40, 192)  576         conv2d_171[0][0]                 
__________________________________________________________________________________________________
batch_normalization_169 (BatchN (None, 16, 40, 192)  576         conv2d_175[0][0]                 
__________________________________________________________________________________________________
activation_171 (Activation)     (None, 16, 40, 192)  0           batch_normalization_165[0][0]    
__________________________________________________________________________________________________
activation_175 (Activation)     (None, 16, 40, 192)  0           batch_normalization_169[0][0]    
__________________________________________________________________________________________________
conv2d_172 (Conv2D)             (None, 8, 20, 320)   552960      activation_171[0][0]             
__________________________________________________________________________________________________
conv2d_176 (Conv2D)             (None, 8, 20, 192)   331776      activation_175[0][0]             
__________________________________________________________________________________________________
batch_normalization_166 (BatchN (None, 8, 20, 320)   960         conv2d_172[0][0]                 
__________________________________________________________________________________________________
batch_normalization_170 (BatchN (None, 8, 20, 192)   576         conv2d_176[0][0]                 
__________________________________________________________________________________________________
activation_172 (Activation)     (None, 8, 20, 320)   0           batch_normalization_166[0][0]    
__________________________________________________________________________________________________
activation_176 (Activation)     (None, 8, 20, 192)   0           batch_normalization_170[0][0]    
__________________________________________________________________________________________________
max_pooling2d_8 (MaxPooling2D)  (None, 8, 20, 768)   0           mixed7[0][0]                     
__________________________________________________________________________________________________
mixed8 (Concatenate)            (None, 8, 20, 1280)  0           activation_172[0][0]             
                                                                 activation_176[0][0]             
                                                                 max_pooling2d_8[0][0]            
__________________________________________________________________________________________________
conv2d_181 (Conv2D)             (None, 8, 20, 448)   573440      mixed8[0][0]                     
__________________________________________________________________________________________________
batch_normalization_175 (BatchN (None, 8, 20, 448)   1344        conv2d_181[0][0]                 
__________________________________________________________________________________________________
activation_181 (Activation)     (None, 8, 20, 448)   0           batch_normalization_175[0][0]    
__________________________________________________________________________________________________
conv2d_178 (Conv2D)             (None, 8, 20, 384)   491520      mixed8[0][0]                     
__________________________________________________________________________________________________
conv2d_182 (Conv2D)             (None, 8, 20, 384)   1548288     activation_181[0][0]             
__________________________________________________________________________________________________
batch_normalization_172 (BatchN (None, 8, 20, 384)   1152        conv2d_178[0][0]                 
__________________________________________________________________________________________________
batch_normalization_176 (BatchN (None, 8, 20, 384)   1152        conv2d_182[0][0]                 
__________________________________________________________________________________________________
activation_178 (Activation)     (None, 8, 20, 384)   0           batch_normalization_172[0][0]    
__________________________________________________________________________________________________
activation_182 (Activation)     (None, 8, 20, 384)   0           batch_normalization_176[0][0]    
__________________________________________________________________________________________________
conv2d_179 (Conv2D)             (None, 8, 20, 384)   442368      activation_178[0][0]             
__________________________________________________________________________________________________
conv2d_180 (Conv2D)             (None, 8, 20, 384)   442368      activation_178[0][0]             
__________________________________________________________________________________________________
conv2d_183 (Conv2D)             (None, 8, 20, 384)   442368      activation_182[0][0]             
__________________________________________________________________________________________________
conv2d_184 (Conv2D)             (None, 8, 20, 384)   442368      activation_182[0][0]             
__________________________________________________________________________________________________
average_pooling2d_17 (AveragePo (None, 8, 20, 1280)  0           mixed8[0][0]                     
__________________________________________________________________________________________________
conv2d_177 (Conv2D)             (None, 8, 20, 320)   409600      mixed8[0][0]                     
__________________________________________________________________________________________________
batch_normalization_173 (BatchN (None, 8, 20, 384)   1152        conv2d_179[0][0]                 
__________________________________________________________________________________________________
batch_normalization_174 (BatchN (None, 8, 20, 384)   1152        conv2d_180[0][0]                 
__________________________________________________________________________________________________
batch_normalization_177 (BatchN (None, 8, 20, 384)   1152        conv2d_183[0][0]                 
__________________________________________________________________________________________________
batch_normalization_178 (BatchN (None, 8, 20, 384)   1152        conv2d_184[0][0]                 
__________________________________________________________________________________________________
conv2d_185 (Conv2D)             (None, 8, 20, 192)   245760      average_pooling2d_17[0][0]       
__________________________________________________________________________________________________
batch_normalization_171 (BatchN (None, 8, 20, 320)   960         conv2d_177[0][0]                 
__________________________________________________________________________________________________
activation_179 (Activation)     (None, 8, 20, 384)   0           batch_normalization_173[0][0]    
__________________________________________________________________________________________________
activation_180 (Activation)     (None, 8, 20, 384)   0           batch_normalization_174[0][0]    
__________________________________________________________________________________________________
activation_183 (Activation)     (None, 8, 20, 384)   0           batch_normalization_177[0][0]    
__________________________________________________________________________________________________
activation_184 (Activation)     (None, 8, 20, 384)   0           batch_normalization_178[0][0]    
__________________________________________________________________________________________________
batch_normalization_179 (BatchN (None, 8, 20, 192)   576         conv2d_185[0][0]                 
__________________________________________________________________________________________________
activation_177 (Activation)     (None, 8, 20, 320)   0           batch_normalization_171[0][0]    
__________________________________________________________________________________________________
mixed9_0 (Concatenate)          (None, 8, 20, 768)   0           activation_179[0][0]             
                                                                 activation_180[0][0]             
__________________________________________________________________________________________________
concatenate_95 (Concatenate)    (None, 8, 20, 768)   0           activation_183[0][0]             
                                                                 activation_184[0][0]             
__________________________________________________________________________________________________
activation_185 (Activation)     (None, 8, 20, 192)   0           batch_normalization_179[0][0]    
__________________________________________________________________________________________________
mixed9 (Concatenate)            (None, 8, 20, 2048)  0           activation_177[0][0]             
                                                                 mixed9_0[0][0]                   
                                                                 concatenate_95[0][0]             
                                                                 activation_185[0][0]             
__________________________________________________________________________________________________
conv2d_190 (Conv2D)             (None, 8, 20, 448)   917504      mixed9[0][0]                     
__________________________________________________________________________________________________
batch_normalization_184 (BatchN (None, 8, 20, 448)   1344        conv2d_190[0][0]                 
__________________________________________________________________________________________________
activation_190 (Activation)     (None, 8, 20, 448)   0           batch_normalization_184[0][0]    
__________________________________________________________________________________________________
conv2d_187 (Conv2D)             (None, 8, 20, 384)   786432      mixed9[0][0]                     
__________________________________________________________________________________________________
conv2d_191 (Conv2D)             (None, 8, 20, 384)   1548288     activation_190[0][0]             
__________________________________________________________________________________________________
batch_normalization_181 (BatchN (None, 8, 20, 384)   1152        conv2d_187[0][0]                 
__________________________________________________________________________________________________
batch_normalization_185 (BatchN (None, 8, 20, 384)   1152        conv2d_191[0][0]                 
__________________________________________________________________________________________________
activation_187 (Activation)     (None, 8, 20, 384)   0           batch_normalization_181[0][0]    
__________________________________________________________________________________________________
activation_191 (Activation)     (None, 8, 20, 384)   0           batch_normalization_185[0][0]    
__________________________________________________________________________________________________
conv2d_188 (Conv2D)             (None, 8, 20, 384)   442368      activation_187[0][0]             
__________________________________________________________________________________________________
conv2d_189 (Conv2D)             (None, 8, 20, 384)   442368      activation_187[0][0]             
__________________________________________________________________________________________________
conv2d_192 (Conv2D)             (None, 8, 20, 384)   442368      activation_191[0][0]             
__________________________________________________________________________________________________
conv2d_193 (Conv2D)             (None, 8, 20, 384)   442368      activation_191[0][0]             
__________________________________________________________________________________________________
average_pooling2d_18 (AveragePo (None, 8, 20, 2048)  0           mixed9[0][0]                     
__________________________________________________________________________________________________
conv2d_186 (Conv2D)             (None, 8, 20, 320)   655360      mixed9[0][0]                     
__________________________________________________________________________________________________
batch_normalization_182 (BatchN (None, 8, 20, 384)   1152        conv2d_188[0][0]                 
__________________________________________________________________________________________________
batch_normalization_183 (BatchN (None, 8, 20, 384)   1152        conv2d_189[0][0]                 
__________________________________________________________________________________________________
batch_normalization_186 (BatchN (None, 8, 20, 384)   1152        conv2d_192[0][0]                 
__________________________________________________________________________________________________
batch_normalization_187 (BatchN (None, 8, 20, 384)   1152        conv2d_193[0][0]                 
__________________________________________________________________________________________________
conv2d_194 (Conv2D)             (None, 8, 20, 192)   393216      average_pooling2d_18[0][0]       
__________________________________________________________________________________________________
batch_normalization_180 (BatchN (None, 8, 20, 320)   960         conv2d_186[0][0]                 
__________________________________________________________________________________________________
activation_188 (Activation)     (None, 8, 20, 384)   0           batch_normalization_182[0][0]    
__________________________________________________________________________________________________
activation_189 (Activation)     (None, 8, 20, 384)   0           batch_normalization_183[0][0]    
__________________________________________________________________________________________________
activation_192 (Activation)     (None, 8, 20, 384)   0           batch_normalization_186[0][0]    
__________________________________________________________________________________________________
activation_193 (Activation)     (None, 8, 20, 384)   0           batch_normalization_187[0][0]    
__________________________________________________________________________________________________
batch_normalization_188 (BatchN (None, 8, 20, 192)   576         conv2d_194[0][0]                 
__________________________________________________________________________________________________
activation_186 (Activation)     (None, 8, 20, 320)   0           batch_normalization_180[0][0]    
__________________________________________________________________________________________________
mixed9_1 (Concatenate)          (None, 8, 20, 768)   0           activation_188[0][0]             
                                                                 activation_189[0][0]             
__________________________________________________________________________________________________
concatenate_96 (Concatenate)    (None, 8, 20, 768)   0           activation_192[0][0]             
                                                                 activation_193[0][0]             
__________________________________________________________________________________________________
activation_194 (Activation)     (None, 8, 20, 192)   0           batch_normalization_188[0][0]    
__________________________________________________________________________________________________
mixed10 (Concatenate)           (None, 8, 20, 2048)  0           activation_186[0][0]             
                                                                 mixed9_1[0][0]                   
                                                                 concatenate_96[0][0]             
                                                                 activation_194[0][0]             
__________________________________________________________________________________________________
decoder_stage0_conv1 (Conv2D)   (None, 8, 20, 512)   1048576     mixed10[0][0]                    
__________________________________________________________________________________________________
decoder_stage0_bn1 (BatchNormal (None, 8, 20, 512)   2048        decoder_stage0_conv1[0][0]       
__________________________________________________________________________________________________
decoder_stage0_relu1 (Activatio (None, 8, 20, 512)   0           decoder_stage0_bn1[0][0]         
__________________________________________________________________________________________________
decoder_stage0_upsample2 (UpSam (None, 16, 40, 512)  0           decoder_stage0_relu1[0][0]       
__________________________________________________________________________________________________
decoder_stage0_conv2 (Conv2D)   (None, 16, 40, 512)  2359296     decoder_stage0_upsample2[0][0]   
__________________________________________________________________________________________________
decoder_stage0_bn2 (BatchNormal (None, 16, 40, 512)  2048        decoder_stage0_conv2[0][0]       
__________________________________________________________________________________________________
decoder_stage0_relu2 (Activatio (None, 16, 40, 512)  0           decoder_stage0_bn2[0][0]         
__________________________________________________________________________________________________
decoder_stage0_conv3 (Conv2D)   (None, 16, 40, 768)  393216      decoder_stage0_relu2[0][0]       
__________________________________________________________________________________________________
decoder_stage0_bn3 (BatchNormal (None, 16, 40, 768)  3072        decoder_stage0_conv3[0][0]       
__________________________________________________________________________________________________
decoder_stage0_relu3 (Activatio (None, 16, 40, 768)  0           decoder_stage0_bn3[0][0]         
__________________________________________________________________________________________________
add_389 (Add)                   (None, 16, 40, 768)  0           decoder_stage0_relu3[0][0]       
                                                                 mixed7[0][0]                     
__________________________________________________________________________________________________
decoder_stage1_conv1 (Conv2D)   (None, 16, 40, 192)  147456      add_389[0][0]                    
__________________________________________________________________________________________________
decoder_stage1_bn1 (BatchNormal (None, 16, 40, 192)  768         decoder_stage1_conv1[0][0]       
__________________________________________________________________________________________________
decoder_stage1_relu1 (Activatio (None, 16, 40, 192)  0           decoder_stage1_bn1[0][0]         
__________________________________________________________________________________________________
decoder_stage1_upsample2 (UpSam (None, 32, 80, 192)  0           decoder_stage1_relu1[0][0]       
__________________________________________________________________________________________________
decoder_stage1_conv2 (Conv2D)   (None, 32, 80, 192)  331776      decoder_stage1_upsample2[0][0]   
__________________________________________________________________________________________________
decoder_stage1_bn2 (BatchNormal (None, 32, 80, 192)  768         decoder_stage1_conv2[0][0]       
__________________________________________________________________________________________________
decoder_stage1_relu2 (Activatio (None, 32, 80, 192)  0           decoder_stage1_bn2[0][0]         
__________________________________________________________________________________________________
decoder_stage1_conv3 (Conv2D)   (None, 32, 80, 288)  55296       decoder_stage1_relu2[0][0]       
__________________________________________________________________________________________________
decoder_stage1_bn3 (BatchNormal (None, 32, 80, 288)  1152        decoder_stage1_conv3[0][0]       
__________________________________________________________________________________________________
decoder_stage1_relu3 (Activatio (None, 32, 80, 288)  0           decoder_stage1_bn3[0][0]         
__________________________________________________________________________________________________
add_390 (Add)                   (None, 32, 80, 288)  0           decoder_stage1_relu3[0][0]       
                                                                 mixed2[0][0]                     
__________________________________________________________________________________________________
decoder_stage2_conv1 (Conv2D)   (None, 32, 80, 72)   20736       add_390[0][0]                    
__________________________________________________________________________________________________
decoder_stage2_bn1 (BatchNormal (None, 32, 80, 72)   288         decoder_stage2_conv1[0][0]       
__________________________________________________________________________________________________
decoder_stage2_relu1 (Activatio (None, 32, 80, 72)   0           decoder_stage2_bn1[0][0]         
__________________________________________________________________________________________________
decoder_stage2_upsample2 (UpSam (None, 64, 160, 72)  0           decoder_stage2_relu1[0][0]       
__________________________________________________________________________________________________
decoder_stage2_conv2 (Conv2D)   (None, 64, 160, 72)  46656       decoder_stage2_upsample2[0][0]   
__________________________________________________________________________________________________
decoder_stage2_bn2 (BatchNormal (None, 64, 160, 72)  288         decoder_stage2_conv2[0][0]       
__________________________________________________________________________________________________
decoder_stage2_relu2 (Activatio (None, 64, 160, 72)  0           decoder_stage2_bn2[0][0]         
__________________________________________________________________________________________________
decoder_stage2_conv3 (Conv2D)   (None, 64, 160, 192) 13824       decoder_stage2_relu2[0][0]       
__________________________________________________________________________________________________
decoder_stage2_bn3 (BatchNormal (None, 64, 160, 192) 768         decoder_stage2_conv3[0][0]       
__________________________________________________________________________________________________
decoder_stage2_relu3 (Activatio (None, 64, 160, 192) 0           decoder_stage2_bn3[0][0]         
__________________________________________________________________________________________________
add_391 (Add)                   (None, 64, 160, 192) 0           decoder_stage2_relu3[0][0]       
                                                                 activation_105[0][0]             
__________________________________________________________________________________________________
decoder_stage3_conv1 (Conv2D)   (None, 64, 160, 48)  9216        add_391[0][0]                    
__________________________________________________________________________________________________
decoder_stage3_bn1 (BatchNormal (None, 64, 160, 48)  192         decoder_stage3_conv1[0][0]       
__________________________________________________________________________________________________
decoder_stage3_relu1 (Activatio (None, 64, 160, 48)  0           decoder_stage3_bn1[0][0]         
__________________________________________________________________________________________________
decoder_stage3_upsample2 (UpSam (None, 128, 320, 48) 0           decoder_stage3_relu1[0][0]       
__________________________________________________________________________________________________
decoder_stage3_conv2 (Conv2D)   (None, 128, 320, 48) 20736       decoder_stage3_upsample2[0][0]   
__________________________________________________________________________________________________
decoder_stage3_bn2 (BatchNormal (None, 128, 320, 48) 192         decoder_stage3_conv2[0][0]       
__________________________________________________________________________________________________
decoder_stage3_relu2 (Activatio (None, 128, 320, 48) 0           decoder_stage3_bn2[0][0]         
__________________________________________________________________________________________________
decoder_stage3_conv3 (Conv2D)   (None, 128, 320, 64) 3072        decoder_stage3_relu2[0][0]       
__________________________________________________________________________________________________
decoder_stage3_bn3 (BatchNormal (None, 128, 320, 64) 256         decoder_stage3_conv3[0][0]       
__________________________________________________________________________________________________
decoder_stage3_relu3 (Activatio (None, 128, 320, 64) 0           decoder_stage3_bn3[0][0]         
__________________________________________________________________________________________________
add_392 (Add)                   (None, 128, 320, 64) 0           decoder_stage3_relu3[0][0]       
                                                                 activation_103[0][0]             
__________________________________________________________________________________________________
decoder_stage4_conv1 (Conv2D)   (None, 128, 320, 16) 1024        add_392[0][0]                    
__________________________________________________________________________________________________
decoder_stage4_bn1 (BatchNormal (None, 128, 320, 16) 64          decoder_stage4_conv1[0][0]       
__________________________________________________________________________________________________
decoder_stage4_relu1 (Activatio (None, 128, 320, 16) 0           decoder_stage4_bn1[0][0]         
__________________________________________________________________________________________________
decoder_stage4_upsample2 (UpSam (None, 256, 640, 16) 0           decoder_stage4_relu1[0][0]       
__________________________________________________________________________________________________
decoder_stage4_conv2 (Conv2D)   (None, 256, 640, 16) 2304        decoder_stage4_upsample2[0][0]   